python/squeezenet_qat.pth (torch, 846487 bytes, 52 tensors)

cpu f8 [96]
8.56879778439179e-05 0.0001497562334407121 0.00019379476725589484 8.632752724224702e-05 0.00013768646749667823 0.00015034657553769648 0.00010314258543075994 0.00013557328202296048
7.457124593202025e-05 0.00012848152255173773 0.00011428592551965266 9.84437283477746e-05 7.46811565477401e-05 7.34584973542951e-05 0.00014867642312310636 0.004037023056298494
9.220460924552754e-05 0.00011722262570401654 0.003118561115115881 9.999888425227255e-05 0.0001074488609447144 8.906158473109826e-05 0.0001642100396566093 0.0001342954783467576
0.00013184409181121737 0.0001654235675232485 0.00036538694985210896 0.002690279157832265 0.00019523515948094428 0.000195328175323084 0.00019312984659336507 0.0001914541790029034
0.00014004288823343813 0.00012912794773001224 0.00014076723891776055 7.920216739876196e-05 0.00019074339070357382 0.003320036455988884 9.289172885473818e-05 0.00016607303405180573
0.00013686183956451714 0.00013768776261713356 6.696335913147777e-05 0.00017729063984006643 0.00013064254017081112 8.033013727981597e-05 0.00014799540804233402 6.870686047477648e-05
0.004641472827643156 0.00013349238724913448 0.0001191145129268989 0.0002338219783268869 0.00012909919314552099 0.00020709511591121554 0.00014591857325285673 0.0001615042274352163
0.0022754576057195663 0.0001297914859605953 0.003949881065636873 8.060377149377018e-05 0.00012017677363473922 0.0001894018641905859 0.0027510803192853928 0.00013365755148697644
7.929350977065042e-05 0.00015117145085241646 0.00011168220225954428 9.208502160618082e-05 0.00022690018522553146 0.00013269430201034993 0.00011761529458453879 0.00019252770289313048
0.0001470116403652355 0.00014787857071496546 0.0001132956676883623 0.00014819369243923575 0.00016724244051147252 6.290199962677434e-05 0.00018550173263065517 0.00014698269660584629
0.00018085284682456404 0.00010997388744726777 0.00012820899428334087 0.0002523584698792547 7.259396807057783e-05 5.8765890571521595e-05 0.00014566465688403696 0.00010506087710382417
0.00016613784828223288 0.00018006778554990888 6.569262041011825e-05 0.00010725810716394335 0.00012000355491181836 0.002829951699823141 0.004399370867758989 9.04321059351787e-05
00000000: 0000 0040 6c76 163f 0000 0040 fca0 233f
00000010: 0000 0060 ac66 293f 0000 00a0 57a1 163f
00000020: 0000 00c0 fd0b 223f 0000 0040 cbb4 233f
00000030: 0000 0020 c809 1b3f 0000 00a0 15c5 213f
00000040: 0000 0040 648c 133f 0000 00e0 1fd7 203f
00000050: 0000 0040 99f5 1d3f 0000 0060 72ce 193f
00000060: 0000 0080 c493 133f 0000 0060 b741 133f
00000070: 0000 00c0 c07c 233f 0000 0020 2089 703f
00000080: 0000 0020 bf2b 183f 0000 0060 adba 1e3f
00000090: 0000 00c0 188c 693f 0000 00c0 cf36 1a3f
000000a0: 0000 0060 c52a 1c3f 0000 0060 d258 173f
000000b0: 0000 0080 f985 253f 0000 0060 359a 213f
000000c0: 0000 0020 f447 213f 0000 00a0 b1ae 253f
000000d0: 0000 0000 2df2 373f 0000 00a0 ec09 663f
000000e0: 0000 0040 0197 293f 0000 0040 209a 293f
000000f0: 0000 00c0 5c50 293f 0000 00e0 2218 293f
00000100: 0000 0040 0f5b 223f 0000 00a0 d0ec 203f
00000110: 0000 0060 5d73 223f 0000 00e0 2ac3 143f
00000120: 0000 0040 4900 293f 0000 0000 9f32 6b3f
00000130: 0000 00c0 db59 183f 0000 0080 7cc4 253f
00000140: 0000 0040 52f0 213f 0000 00e0 080c 223f
00000150: 0000 00c0 d58d 113f 0000 0000 e33c 273f
00000160: 0000 00e0 a21f 213f 0000 0040 dd0e 153f
00000170: 0000 00e0 e665 233f 0000 00e0 d602 123f
00000180: 0000 00e0 ef02 733f 0000 00e0 427f 213f
00000190: 0000 00c0 a339 1f3f 0000 0080 c3a5 2e3f
000001a0: 0000 00a0 d9eb 203f 0000 0080 f524 2b3f
000001b0: 0000 0000 3720 233f 0000 00c0 2e2b 253f
000001c0: 0000 0000 fba3 623f 0000 0060 1403 213f
000001d0: 0000 0020 c02d 703f 0000 0040 3a21 153f
000001e0: 0000 0040 ed80 1f3f 0000 00a0 45d3 283f
000001f0: 0000 0000 6f89 663f 0000 00a0 cd84 213f
00000200: 0000 0020 4cc9 143f 0000 00e0 78d0 233f
00000210: 0000 00a0 dd46 1d3f 0000 00a0 b823 183f
00000220: 0000 00c0 81bd 2d3f 0000 0060 7b64 213f
00000230: 0000 0060 07d5 1e3f 0000 0060 283c 293f
00000240: 0000 0060 e444 233f 0000 0040 fb61 233f
00000250: 0000 00c0 24b3 1d3f 0000 0020 8e6c 233f
00000260: 0000 00a0 b9eb 253f 0000 0020 487d 103f
00000270: 0000 00c0 6750 283f 0000 00c0 eb43 233f
00000280: 0000 0020 6ab4 273f 0000 0000 39d4 1c3f
00000290: 0000 00e0 facd 203f 0000 0060 df89 303f
000002a0: 0000 00e0 b207 133f 0000 00a0 6ccf 0e3f
000002b0: 0000 00e0 b117 233f 0000 0020 848a 1b3f
000002c0: 0000 0040 a9c6 253f 0000 0080 129a 273f
000002d0: 0000 00a0 8e38 113f 0000 0040 f81d 1c3f
000002e0: 0000 0060 4d75 1f3f 0000 00c0 d62e 673f
000002f0: 0000 0020 1305 723f 0000 00c0 cbb4 173f

conv1.bias f4 [96]
-0.0056218593 -0.003760975 -0.007634939 -0.008039083 -0.007279603 -0.0147592975 -0.003318889 -0.005016932
-0.00028182685 0.00034510557 -0.0040303227 -0.003567768 -0.0010452918 -0.0081207575 -0.013844577 -0.10294096
0.00019622105 -0.0036708892 -0.20634355 -0.007749911 0.0013596982 -0.0016458823 -0.013090984 -0.011106559
-0.005931521 -0.005139954 -0.019874379 -0.40705806 -0.008307015 -0.013983751 -0.019604793 -0.010139965
0.0041076187 -0.004626516 6.3841535e-06 -0.0006133247 -0.00944935 -0.050371267 -0.009975449 -0.012083312
-0.0132885035 -0.011971675 -0.004932202 -0.008854787 -0.009144531 -0.0063357856 -0.0068237036 -0.004360162
-0.13684987 -0.0055700517 0.00056683685 -0.0128462715 -0.0061945296 -0.011197334 -0.013186623 -0.007148227
0.108283065 -0.0054391325 0.36693907 0.0048972196 -0.007926376 -0.010911787 -0.113118656 -0.009352929
-0.016988618 -0.007653446 -0.012692178 -0.0049725873 -0.01640844 -0.010432485 -0.008149871 -0.005328277
-0.009496525 -0.0012150207 -0.005942501 -0.011081082 -0.0014862346 -0.008985609 -0.009150805 -0.0010792337
-0.006124551 -0.008237075 -0.0024429448 -0.0034127845 -0.006402645 -0.0040691253 -0.007796967 -0.012924009
-0.014820202 -0.011263491 -0.0009819384 -0.0060869544 -0.010461541 -0.16761212 -0.27074516 -0.017977685
00000000: 9337 b8bb b17a 76bb 832e fabb 5cb6 03bc
00000010: bc89 eebb fbd0 71bc b881 59bb 1365 a4bb
00000020: 29c2 93b9 49ef b439 cc10 84bb 37d1 69bb
00000030: 2c02 89ba ed0c 05bc 5dd4 62bc b6d2 d2bd
00000040: b0c0 4d39 4d93 70bb b94b 53be f7f2 fdbb
00000050: e737 b23a a5ba d7ba 917b 56bc 49f8 35bc
00000060: 345d c2bb 0f6d a8bb 98cf a2bc ea69 d0be
00000070: 251a 08bc 1a1c 65bc 3b9a a0bc 1922 26bc
00000080: 3499 863b 079a 97bb 7637 d636 86c7 20ba
00000090: 72d1 1abc 1a52 4ebd 1170 23bc 15f9 45bc
000000a0: 06b8 59bc d824 44bc 4f9e a1bb ab13 11bc
000000b0: f1d2 15bc 6c9c cfbb 6099 dfbb b1df 8ebb
000000c0: 5f22 0cbe fb84 b6bb c797 143a 2b79 52bc
000000d0: 7bfb cabb 0675 37bc b50c 58bc ad3b eabb
000000e0: 83c3 dd3d c03a b2bb 70df bb3e db78 a03b
000000f0: a1dd 01bc 5ac7 32bc c1aa e7bd 073d 19bc
00000100: b72b 8bbc c2c9 fabb daf2 4fbc 16f1 a2bb
00000110: fe6a 86bc 03ed 2abc 0987 05bc d498 aebb
00000120: 5097 1bbc 5441 9fba 50b9 c2bb 6d8d 35bc
00000130: c2cd c2ba 6038 13bc 42ed 15bc 1375 8dba
00000140: 75b0 c8bb ccf4 06bc d019 20bb 06a9 5fbb
00000150: 47cd d1bb 4c56 85bb b37d ffbb 39bf 53bc
00000160: 6fd0 72bc 818a 38bc 63b4 80ba 1375 c7bb
00000170: e266 2bbc 83a2 2bbe 1c9f 8abe f045 93bc

cpu f8 [16]
0.0033228660468012094 0.002901208819821477 9.384108352605836e-07 1.1920928955078125e-07 0.005500401835888624 0.0052519976161420345 0.004497695714235306 8.115946548059583e-05
0.004322746302932501 0.007401028648018837 0.0069655501283705235 0.0044748419895768166 0.0037355092354118824 0.005163284484297037 0.004349753260612488 0.004706534091383219
00000000: 0000 0020 8e38 6b3f 0000 00a0 46c4 673f
00000010: 0000 0040 e37c af3e 0000 0000 0000 803e
00000020: 0000 00e0 9687 763f 0000 0060 1e83 753f
00000030: 0000 0000 2d6c 723f 0000 0000 8546 153f
00000040: 0000 0060 bab4 713f 0000 0080 8a50 7e3f
00000050: 0000 00a0 e887 7c3f 0000 0040 3654 723f
00000060: 0000 0040 ee99 6e3f 0000 00a0 1826 753f
00000070: 0000 0000 0cd1 713f 0000 00a0 2847 733f

fire2.conv1.bias f4 [16]
0.34560803 -0.12931292 8.7486973e-10 -4.945e-42 0.090924904 -0.38545164 0.11959865 -6.9744376e-05
0.13727917 0.043134112 0.3727096 0.0151018845 -0.16713116 0.5430018 0.18147981 -0.27242088
00000000: 89f3 b03e 9b6a 04be 7c7b 7030 c90d 0080
00000010: d636 ba3d eb59 c5be 23f0 f43d ba43 92b8
00000020: e992 0c3e 65ad 303d cbd3 be3e e56d 773c
00000030: 6e24 2bbe 2a02 0b3f d8d5 393e c07a 8bbe

cpu f8 [64]
7.286518552973575e-07 1.1920928955078125e-07 1.311240254153745e-07 1.1920928955078125e-07 7.934547738841502e-07 2.939177363714407e-07 1.1920928955078125e-07 1.1920928955078125e-07
1.1920928955078125e-07 0.0023962892591953278 1.9439659126874176e-07 2.2974607816195203e-07 0.0035569395404309034 0.0014836664777249098 0.0033801039680838585 4.2793286070264003e-07
4.387390220017551e-07 5.09254903136025e-07 3.752484474262019e-07 1.1920928955078125e-07 1.1920928955078125e-07 2.6159870003539254e-07 4.236079576003249e-07 6.248952786336304e-07
3.153004968226014e-07 1.1920928955078125e-07 1.1920928955078125e-07 6.447249347729667e-07 7.783784212733735e-07 5.390762112256198e-07 1.1920928955078125e-07 2.7083939357908093e-07
1.1920928955078125e-07 1.3619069250125904e-07 3.5795551411865745e-07 1.958440805083228e-07 3.4100926882274507e-07 3.7665679997189727e-07 2.420218550014397e-07 4.826167696592165e-07
1.1920928955078125e-07 2.118376016824186e-07 1.1920928955078125e-07 7.645925848009938e-07 1.1920928955078125e-07 9.955218729373883e-07 2.4971103584903176e-07 5.159462830306438e-07
1.818478665427392e-07 1.1920928955078125e-07 8.587442152929725e-07 1.1920928955078125e-07 3.5979493873128376e-07 1.5668904040921916e-07 1.1920928955078125e-07 3.5976555068373273e-07
1.1920928955078125e-07 7.186258130786882e-07 1.1920928955078125e-07 0.0025091168936342 1.1920928955078125e-07 0.004136412870138884 1.2275637573111453e-07 4.1985973098235263e-07
00000000: 0000 0060 1273 a83e 0000 0000 0000 803e
00000010: 0000 0020 6399 813e 0000 0000 0000 803e
00000020: 0000 0080 b99f aa3e 0000 00e0 77b9 933e
00000030: 0000 0000 0000 803e 0000 0000 0000 803e
00000040: 0000 0000 0000 803e 0000 0000 62a1 633f
00000050: 0000 0080 6a17 8a3e 0000 00e0 03d6 8e3e
00000060: 0000 0060 7123 6d3f 0000 00c0 f24e 583f
00000070: 0000 0080 97b0 6b3f 0000 00a0 d4b7 9c3e
00000080: 0000 00a0 7a71 9d3e 0000 0060 7716 a13e
00000090: 0000 0020 b82e 993e 0000 0000 0000 803e
000000a0: 0000 0000 0000 803e 0000 0040 3b8e 913e
000000b0: 0000 0080 876d 9c3e 0000 0040 cff7 a43e
000000c0: 0000 0040 d228 953e 0000 0000 0000 803e
000000d0: 0000 0000 0000 803e 0000 0020 25a2 a53e
000000e0: 0000 0040 381e aa3e 0000 0020 a116 a23e
000000f0: 0000 0000 0000 803e 0000 0040 fc2c 923e
00000100: 0000 0000 0000 803e 0000 0000 7a47 823e
00000110: 0000 0000 a105 983e 0000 00c0 2649 8a3e
00000120: 0000 00a0 7ee2 963e 0000 0020 ea46 993e
00000130: 0000 0060 e73d 903e 0000 0080 a531 a03e
00000140: 0000 0000 0000 803e 0000 0040 af6e 8c3e
00000150: 0000 0000 0000 803e 0000 00e0 cca7 a93e
00000160: 0000 0000 0000 803e 0000 00e0 bbb3 b03e
00000170: 0000 00c0 00c2 903e 0000 00e0 f14f a13e
00000180: 0000 00c0 3e68 883e 0000 0000 0000 803e
00000190: 0000 0080 8ed0 ac3e 0000 0000 0000 803e
000001a0: 0000 00e0 3a25 983e 0000 0060 cb07 853e
000001b0: 0000 0000 0000 803e 0000 00a0 b924 983e
000001c0: 0000 0000 0000 803e 0000 00e0 f21c a83e
000001d0: 0000 0000 0000 803e 0000 00e0 ff8d 643f
000001e0: 0000 0000 0000 803e 0000 00e0 57f1 703f
000001f0: 0000 0080 e079 803e 0000 00a0 222d 9c3e

fire2.conv2.bias f4 [64]
1.2954957e-13 -1.2816941e-13 -4.4568983e-14 6.738508e-14 9.26735e-14 2.7097456e-14 -4.93e-42 -8.4962866e-14
5.168e-42 0.16193004 -2.3206038e-10 2.991121e-14 0.25812984 -0.22399983 -0.56929874 -6.9765314e-13
-1.1706976e-10 -2.1912586e-14 1.1441726e-12 3.6856826e-09 6.188e-42 -3.6209227e-09 4.907e-42 1.2678055e-12
5.328e-42 -1.2102609e-07 4.913e-42 -6.270915e-11 1.09522925e-10 1.37709575e-11 -4.95e-42 -1.0158908e-05
-4.809494e-14 -6.648865e-09 5.639e-42 -5.303e-42 4.914e-42 -5.5291894e-06 2.1943055e-11 -3.6683005e-14
1.2406553e-14 -4.907e-42 2.818811e-08 2.2639849e-14 1.7881815e-10 2.2050018e-12 -3.9064485e-14 2.5931526e-10
8.9150603e-07 -6.4299247e-06 -5.6593764e-14 -1.0019999e-08 1.4974933e-13 1.1371701e-11 -4.926e-42 -3.2370979e-06
1.9207551e-08 -1.1449584e-06 6.274e-42 -0.4153429 -2.1670242e-11 0.06592554 1.4928977e-12 5.157933e-08
00000000: 1fdc 112a 514e 10aa 8ab8 48a9 dbbc 9729
00000010: a3ae d029 7b12 f428 be0d 0080 c251 bfa9
00000020: 680e 0000 fdd0 253e 3127 7faf 47b5 0629
00000030: 9829 843e 3660 65be 90bd 11bf 355f 44ab
00000040: 35b8 00af fc5e c5a8 2a07 a12b 3747 7d31
00000050: 4011 0000 f2d3 78b1 ae0d 0000 826d b22b
00000060: da0e 0000 66f3 01b4 b20d 0000 1de6 89ae
00000070: edd7 f02e e142 722d cc0d 0080 2d70 2ab7
00000080: b199 58a9 0974 e4b1 b80f 0000 c80e 0080
00000090: b30d 0000 6087 b9b6 5e03 c12d a034 25a9
000000a0: 217f 5f28 ae0d 0080 4f22 f232 f0eb cb28
000000b0: d69c 442f c829 1b2c 49ee 2fa9 618f 8e2f
000000c0: d44f 6f35 a2c0 d7b6 2be0 7ea9 6c24 2cb2
000000d0: 4e9a 282a 970d 482d bb0d 0080 eb3c 59b6
000000e0: dafd a432 79ac 99b5 7d11 0000 d3a7 d4be
000000f0: 0c9d bead f803 873d 4f1b d22b 1388 5d33

cpu f8 [64]
7.005043585195381e-07 0.0021364069543778896 8.766693326833774e-07 0.001997877610847354 1.068684696292621e-06 9.911402685247594e-07 0.0034081614576280117 1.0662713521014666e-06
3.0855483146297047e-07 0.002144565572962165 7.876866447986686e-07 1.0699967560867663e-06 0.0022758599370718002 8.10035146514565e-07 1.8027604653525486e-07 0.003340737195685506
1.1920928955078125e-07 0.004848324228078127 0.003366087796166539 0.002588234841823578 1.0443216069688788e-06 0.0033548802603036165 1.1920928955078125e-07 0.003234503325074911
0.004107221029698849 0.002236745785921812 0.0025163735263049603 1.0795347407110967e-06 0.0022596700582653284 0.002100960351526737 0.004900591913610697 7.597161015837628e-07
7.61429191697971e-07 7.201303446890961e-07 0.001868235063739121 0.0021021782886236906 0.004394072573632002 1.1920928955078125e-07 1.1189864608240896e-06 1.202009798362269e-07
1.1920928955078125e-07 0.0020333165302872658 1.6044701567352604e-07 7.918293931652443e-07 1.080231754713168e-06 1.1920928955078125e-07 0.0036819339729845524 1.1920928955078125e-07
0.003308959538117051 5.39279881195398e-07 4.236621862219181e-07 6.944070491954335e-07 1.1920928955078125e-07 1.791301968978587e-07 0.004366530105471611 0.0033571363892406225
9.799759936868213e-07 0.0016584243858233094 0.00141740997787565 0.0042376043274998665 1.5038040146464482e-07 4.214983277961437e-07 1.976761865307708e-07 0.004533125553280115
00000000: 0000 0060 4981 a73e 0000 00c0 5e80 613f
00000010: 0000 0040 886a ad3e 0000 0060 da5d 603f
00000020: 0000 0040 f7ed b13e 0000 0040 eaa0 b03e
00000030: 0000 00c0 6eeb 6b3f 0000 00c0 99e3 b13e
00000040: 0000 0080 eeb4 943e 0000 00e0 7a91 613f
00000050: 0000 0040 2d6e aa3e 0000 00e0 99f3 b13e
00000060: 0000 0000 d3a4 623f 0000 0020 262e ab3e
00000070: 0000 00e0 3c32 883e 0000 00a0 085e 6b3f
00000080: 0000 0000 0000 803e 0000 0020 d6db 733f
00000090: 0000 00a0 3293 6b3f 0000 0000 ec33 653f
000000a0: 0000 00c0 5385 b13e 0000 00a0 b17b 6b3f
000000b0: 0000 0000 0000 803e 0000 00c0 3e7f 6a3f
000000c0: 0000 00c0 bbd2 703f 0000 00c0 cb52 623f
000000d0: 0000 00c0 379d 643f 0000 0000 911c b23e
000000e0: 0000 0020 df82 623f 0000 0080 0836 613f
000000f0: 0000 00a0 a412 743f 0000 0060 e97d a93e
00000100: 0000 0080 a08c a93e 0000 0060 df29 a83e
00000110: 0000 0020 f29b 5e3f 0000 0060 9638 613f
00000120: 0000 00e0 84ff 713f 0000 0000 0000 803e
00000130: 0000 00a0 02c6 b23e 0000 0000 1322 803e
00000140: 0000 0000 0000 803e 0000 0080 2ca8 603f
00000150: 0000 00e0 ea88 853e 0000 0040 c391 aa3e
00000160: 0000 0060 8f1f b23e 0000 0000 0000 803e
00000170: 0000 0040 9329 6e3f 0000 0000 0000 803e
00000180: 0000 0020 641b 6b3f 0000 0000 6118 a23e
00000190: 0000 0000 766e 9c3e 0000 0040 e94c a73e
000001a0: 0000 0000 0000 803e 0000 00e0 dd0a 883e
000001b0: 0000 0080 a3e2 713f 0000 00e0 6c80 6b3f
000001c0: 0000 0000 f770 b03e 0000 00a0 ef2b 5b3f
000001d0: 0000 0060 0c39 573f 0000 0040 735b 713f
000001e0: 0000 0000 082f 843e 0000 0040 4949 9c3e
000001f0: 0000 0020 1a88 8a3e 0000 00a0 5391 723f

fire2.conv3.bias f4 [64]
-5.811e-42 0.01961843 -5.087e-42 -0.050527733 -2.0539878e-07 2.5209134e-12 0.11402652 -3.3153455e-07
-5.378e-42 0.08235209 1.6337022e-05 3.1585685e-08 0.04057776 -4.5926748e-12 4.965e-42 -0.18601005
-4.951e-42 -0.0024030264 0.062393837 -0.074372716 -7.2217948e-12 0.20886074 4.907e-42 0.13459404
0.01269058 -0.07045421 -0.035386354 8.822788e-14 0.008763937 -0.040169593 0.050668187 5.6253654e-08
3.961179e-13 5.610493e-12 -0.00042085737 -0.09531469 0.08275437 4.954e-42 -2.5989425e-10 -5.314e-42
4.905e-42 -0.048195712 -4.934e-42 -4.912e-42 -1.7144993e-12 4.962e-42 0.0820047 4.933e-42
0.018520867 2.6851432e-13 -4.906e-42 -5.339e-42 4.934e-42 5.07e-42 0.052370086 0.16489242
-8.2864976e-14 0.07374201 0.13904303 0.17270543 4.96e-42 8.2902875e-15 4.951e-42 0.025043234
00000000: 3310 0080 d4b6 a03c 2e0e 0080 2bf6 4ebd
00000010: 968b 5cb4 bd64 312c bc86 e93d c3fd b1b4
00000020: fe0e 0080 36a8 a83d 7d0b 8937 d4a8 0733
00000030: de34 263d 2397 a1ac d70d 0000 6b79 3ebe
00000040: cd0d 0080 187c 1dbb ae90 7f3d b950 98bd
00000050: 2518 feac 97df 553e ae0d 0000 05d3 093e
00000060: 27ec 4f3c 4c4a 90bd 48f1 10bd e9ab c629
00000070: 9e96 0f3c df88 24bd 7289 4f3d 8c9b 7133
00000080: 9bfe de2a d466 c52c 85a6 dcb9 5934 c3bd
00000090: 207b a93d cf0d 0000 dde0 8eaf d00e 0080
000000a0: ac0d 0000 de68 45bd c10d 0080 b10d 0080
000000b0: 594b f1ab d50d 0000 15f2 a73d c00d 0000
000000c0: 13b9 973c fe28 972a ad0d 0080 e20e 0080
000000d0: c10d 0000 220e 0000 0482 563d 8fd9 283e
000000e0: 6898 baa9 0d06 973d 4c61 0e3e b1d9 303e
000000f0: d40d 0000 3458 1528 cd0d 0000 7827 cd3c

cpu f8 [16]
4.63969058728253e-07 0.0039516231045126915 8.00885345597635e-07 0.004981094039976597 0.002742087934166193 0.004950905684381723 1.0445842235640157e-06 0.004364599008113146
6.884737899781612e-07 0.0037073337007313967 4.668952726660791e-07 0.0037698112428188324 8.063006475822476e-07 0.004639407154172659 1.0590988495096099e-06 1.0848608553715167e-06
00000000: 0000 0080 ed22 9f3e 0000 00c0 932f 703f
00000010: 0000 0080 8ddf aa3e 0000 0040 0e67 743f
00000020: 0000 0040 9376 663f 0000 00a0 6647 743f
00000030: 0000 0080 7486 b13e 0000 0020 9de0 713f
00000040: 0000 00e0 f119 a73e 0000 00a0 d75e 6e3f
00000050: 0000 0020 3355 9f3e 0000 0000 dee1 6e3f
00000060: 0000 00e0 110e ab3e 0000 0060 c500 733f
00000070: 0000 0080 cbc4 b13e 0000 0020 7133 b23e

fire3.conv1.bias f4 [16]
-5.164e-42 -1.2015852 -4.424022e-06 0.19440609 0.37652794 0.13087967 -4.913e-42 0.91759664
-4.948e-42 -0.25868142 4.956e-42 0.34152168 5.02e-42 0.262728 -6.605697e-08 1.7925357e-11
00000000: 650e 0080 8bcd 99bf 0f72 94b6 6412 473e
00000010: 45c8 c03e 5205 063e b20d 0080 9de7 6a3f
00000020: cb0d 0080 e471 84be d10d 0000 eedb ae3e
00000030: fe0d 0000 4984 863e 34db 8db3 51ac 9d2d

cpu f8 [64]
1.6958095727659384e-07 1.1920928955078125e-07 0.004810814280062914 1.2838171414841781e-07 0.006394393276423216 9.198910788654757e-07 4.890513878308411e-07 1.1920928955078125e-07
1.1920928955078125e-07 1.1920928955078125e-07 4.1798529082370806e-07 6.859132781755761e-07 1.1920928955078125e-07 1.1920928955078125e-07 4.0710455095904763e-07 1.1920928955078125e-07
1.1920928955078125e-07 3.3103540886259e-07 2.630391975344537e-07 1.1920928955078125e-07 1.1920928955078125e-07 1.1920928955078125e-07 1.1920928955078125e-07 1.1920928955078125e-07
0.004857825115323067 1.1920928955078125e-07 1.1920928955078125e-07 5.668952098858426e-07 1.1920928955078125e-07 1.0178752063438878e-06 4.665623976052302e-07 5.665332878379559e-07
2.723757859257603e-07 2.3831252349282295e-07 5.336390245247458e-07 3.6934244462827337e-07 0.006610486656427383 3.4547824157016294e-07 0.0030060538556426764 2.3251395475654135e-07
1.1920928955078125e-07 2.5902016886902857e-07 1.1920928955078125e-07 7.840270086489909e-07 5.684376560566307e-07 7.612971444359573e-07 1.4230693068384426e-07 0.0018906755140051246
2.2368222118984704e-07 0.003028883831575513 2.6512236672715517e-07 1.1920928955078125e-07 1.1920928955078125e-07 1.1920928955078125e-07 8.98287169093237e-07 1.1920928955078125e-07
4.949069989379495e-07 2.7938597213506e-07 4.236115103140037e-07 1.5685580478930206e-07 5.514341978596349e-07 1.7425286102934479e-07 1.1920928955078125e-07 2.660565314727137e-07
00000000: 0000 00e0 c1c2 863e 0000 0000 0000 803e
00000010: 0000 0020 81b4 733f 0000 0080 293b 813e
00000020: 0000 00e0 0131 7a3f 0000 00e0 cddd ae3e
00000030: 0000 0060 eb68 a03e 0000 0000 0000 803e
00000040: 0000 0000 0000 803e 0000 0000 0000 803e
00000050: 0000 00c0 ee0c 9c3e 0000 0040 f303 a73e
00000060: 0000 0000 0000 803e 0000 0000 0000 803e
00000070: 0000 00c0 0052 9b3e 0000 0000 0000 803e
00000080: 0000 0000 0000 803e 0000 0020 2537 963e
00000090: 0000 00a0 faa6 913e 0000 0000 0000 803e
000000a0: 0000 0000 0000 803e 0000 0000 0000 803e
000000b0: 0000 0000 0000 803e 0000 0000 0000 803e
000000c0: 0000 0080 cce5 733f 0000 0000 0000 803e
000000d0: 0000 0000 0000 803e 0000 00c0 9705 a33e
000000e0: 0000 0000 0000 803e 0000 00a0 bd13 b13e
000000f0: 0000 0020 7b4f 9f3e 0000 00e0 7b02 a33e
00000100: 0000 0060 6147 923e 0000 0020 5bfc 8f3e
00000110: 0000 00a0 ece7 a13e 0000 0040 41c9 983e
00000120: 0000 0000 9913 7b3f 0000 0060 452f 973e
00000130: 0000 00e0 26a0 683f 0000 0060 1e35 8f3e
00000140: 0000 0000 0000 803e 0000 00c0 ee61 913e
00000150: 0000 0000 0000 803e 0000 00a0 bd4e aa3e
00000160: 0000 00a0 d712 a33e 0000 0020 7e8b a93e
00000170: 0000 0000 a119 833e 0000 0060 11fa 5e3f
00000180: 0000 00a0 a905 8e3e 0000 00a0 07d0 683f
00000190: 0000 0080 c4ca 913e 0000 0000 0000 803e
000001a0: 0000 0000 0000 803e 0000 0000 0000 803e
000001b0: 0000 0060 3a24 ae3e 0000 0000 0000 803e
000001c0: 0000 0000 389b a03e 0000 0080 d0bf 923e
000001d0: 0000 0020 976d 9c3e 0000 0040 860d 853e
000001e0: 0000 00a0 c880 a23e 0000 0060 4863 873e
000001f0: 0000 0000 0000 803e 0000 0000 d1da 913e

fire3.conv2.bias f4 [64]
1.23604705e-05 -2.2154405e-10 -0.7403017 -4.600734e-13 0.2340996 3.0112226e-08 5.956e-42 2.1017422e-08
4.7871954e-12 4.944e-42 -2.433012e-09 5.195e-42 -4.1075618e-15 -5.032e-42 -6.29e-42 -1.3280417e-13
-1.9978326e-05 -2.5523054e-14 -3.6999524e-14 -1.9214057e-11 4.6193563e-06 -4.1462165e-08 1.1969303e-06 -2.485071e-10
0.0846567 6.1910794e-15 5.36e-42 5.547412e-11 -1.14616086e-07 -7.4335e-06 -4.912e-42 -7.246546e-09
-1.8851096e-11 4.684473e-14 1.9619383e-05 -6.6997204e-06 0.7269463 -1.000769e-06 -0.48267576 -7.0009653e-12
5.534e-42 -1.4111396e-05 -6.95844e-13 -4.727378e-14 -0.00014953423 3.2040427e-14 7.9731686e-13 0.11283349
-2.6559482e-11 -0.6580552 5.374e-42 -3.8932527e-07 -2.8544722e-10 -7.976959e-10 5.905e-42 -2.3511933e-07
5.804494e-07 -1.590156e-13 3.2160792e-13 1.04331846e-07 -8.0348095e-14 -5.2975343e-13 -4.92e-42 4.923e-42
00000000: d15f 4f37 1b97 73af 6a84 3dbf c87f 01ab
00000010: ceb7 6f3e be54 0133 9a10 0000 cd89 b432
00000020: 396f a82c c80d 0000 0032 27b1 7b0e 0000
00000030: 92fd 93a7 070e 0080 8911 0080 3286 15aa
00000040: 2197 a7b7 28e4 e5a8 8ca1 26a9 3602 a9ad
00000050: f8ff 9a36 2214 32b3 36a6 a035 449e 88af
00000060: 7e60 ad3d a10e df27 f10e 0000 4efa 732e
00000070: dc22 f6b3 476d f9b6 b10d 0080 4bfd f8b1
00000080: e5d0 a5ad 4cf8 5229 4e94 a437 29ce e0b6
00000090: 2719 3a3f 2952 86b5 4721 f7be 1753 f6ac
000000a0: 6d0f 0000 fcbf 6cb7 d8dc 43ab f5e6 54a9
000000b0: 4acc 1cb9 194c 1029 bc6c 602b 3f15 e73d
000000c0: a39e e9ad 4e76 28bf fb0e 0000 7504 d1b4
000000d0: 20ed 9caf dc44 5bb0 7610 0000 1c75 7cb4
000000e0: 2ed0 1b35 2009 33aa 960c b52a 0a0d e033
000000f0: 86ed b4a9 c21c 15ab b70d 0080 b90d 0000

cpu f8 [64]
1.0731065458458033e-06 4.6556107236028765e-07 1.040417828335194e-06 7.473088885490142e-07 0.0030544367618858814 0.0015186438104137778 1.0813130302267382e-06 8.49836794714065e-07
0.0013394530396908522 1.0936065564237651e-06 0.002383986720815301 1.1228273706365144e-06 1.1240573485338246e-06 1.0280709830112755e-06 1.0758358257589862e-06 1.1063316378567833e-06
0.004916626028716564 5.959232680652349e-07 1.1296772299829172e-06 1.0501603355805855e-06 1.0976958719766117e-06 0.004400668665766716 0.003409581258893013 4.813559257854649e-07
0.0032864068634808064 1.1016441021638457e-06 1.011189510791155e-06 1.0992272336807218e-06 0.004073312971740961 9.818652415560791e-07 1.115299028242589e-06 6.829008611930476e-07
5.045103534939699e-07 7.642669856977591e-07 0.004223605617880821 1.0884803032240598e-06 0.0027683197986334562 8.823171242511307e-07 0.004663687199354172 0.0012188258115202188
7.907531767159526e-07 0.004882558714598417 6.814179300818068e-07 8.272490958916023e-07 0.003019747557118535 0.0038455212488770485 1.043535007738683e-06 9.776235856406856e-07
6.91259458562854e-07 1.0851699698832817e-06 1.0423675576021196e-06 0.0022811947856098413 0.0026246984489262104 0.005898794159293175 1.078882860383601e-06 1.040593019752123e-06
6.991122631916369e-07 1.118463956117921e-06 1.0421151728223776e-06 1.0262942851113621e-06 8.222123142331839e-07 7.347437076532515e-07 1.0271830888086697e-06 7.979846827765869e-07
00000000: 0000 0020 f500 b23e 0000 0040 473e 9f3e
00000010: 0000 0080 8f74 b13e 0000 00a0 5513 a93e
00000020: 0000 0040 9e05 693f 0000 0060 a7e1 583f
00000030: 0000 0040 3424 b23e 0000 00e0 0a84 ac3e
00000040: 0000 00c0 12f2 553f 0000 0020 0159 b23e
00000050: 0000 0020 9587 633f 0000 00c0 81d6 b23e
00000060: 0000 0020 cadb b23e 0000 0000 883f b13e
00000070: 0000 0000 ae0c b23e 0000 0080 a88f b23e
00000080: 0000 00c0 7423 743f 0000 0020 f1fe a33e
00000090: 0000 0040 edf3 b23e 0000 0080 679e b13e
000000a0: 0000 0060 916a b23e 0000 0080 6f06 723f
000000b0: 0000 0000 69ee 6b3f 0000 00e0 d026 a03e
000000c0: 0000 0040 18ec 6a3f 0000 0080 867b b23e
000000d0: 0000 00a0 06f7 b03e 0000 0020 2571 b23e
000000e0: 0000 00a0 2daf 703f 0000 0040 1479 b03e
000000f0: 0000 0040 2cb6 b23e 0000 00e0 12ea a63e
00000100: 0000 0000 b6ed a03e 0000 00e0 00a5 a93e
00000110: 0000 0080 c54c 713f 0000 00c0 fc42 b23e
00000120: 0000 0060 96ad 663f 0000 00e0 0b9b ad3e
00000130: 0000 0000 3b1a 733f 0000 0040 20f8 533f
00000140: 0000 00a0 8488 aa3e 0000 00e0 bbff 733f
00000150: 0000 00e0 55dd a63e 0000 0000 04c2 ab3e
00000160: 0000 00a0 debc 683f 0000 0080 a480 6f3f
00000170: 0000 00e0 f281 b13e 0000 0080 dc66 b03e
00000180: 0000 00a0 df31 a73e 0000 0000 c534 b23e
00000190: 0000 0040 ef7c b13e 0000 0020 03b0 623f
000001a0: 0000 0040 6480 653f 0000 0080 5529 783f
000001b0: 0000 0040 c419 b23e 0000 0020 5075 b13e
000001c0: 0000 0020 5475 a73e 0000 0020 c4c3 b23e
000001d0: 0000 00c0 d97b b13e 0000 0080 e637 b13e
000001e0: 0000 0000 c096 ab3e 0000 0080 66a7 a83e
000001f0: 0000 00c0 b73b b13e 0000 00e0 a2c6 aa3e

fire3.conv3.bias f4 [64]
-1.0695643e-05 5.364e-42 6.1460676e-05 4.96e-42 -0.018373718 -0.005734879 1.0384497e-11 3.1253757e-11
-0.060638215 -3.4978398e-06 0.047273055 1.6619291e-14 -6.359361e-13 4.916e-42 -7.5706424e-08 1.7411424e-10
-0.3691051 5.154e-42 -4.085711e-13 8.384174e-11 -2.3348844e-05 0.1057766 -0.09281244 4.968e-42
0.15028553 5.283e-42 -4.941e-42 -3.3023334e-11 0.20942119 -5.961e-42 8.969197e-13 5.0774697e-06
-4.952e-42 5.553e-42 0.21110101 1.0116433e-08 0.10241602 -4.927e-42 0.044058986 -0.01599262
3.8895585e-08 0.40786806 5.214e-42 -6.404861e-14 0.11709669 0.08289986 -1.0144023e-08 5.076348e-13
-5.86e-42 2.0979229e-08 -4.933e-42 0.3786935 0.14955425 -0.010039574 1.1451996e-11 4.905e-42
-2.6939813e-12 2.6855196e-12 -4.954e-42 -5.802009e-07 -5.017e-42 -4.909e-42 -5e-42 2.6501871e-12
00000000: 7071 33b7 f40e 0000 73e4 8038 d40d 0000
00000010: 7b84 96bc a7eb bbbb 9eaf 362d 9a74 092e
00000020: c75f 78bd 6ebc 6ab6 64a1 413d 7ab1 9528
00000030: 0600 33ab b40d 0000 0c94 a2b3 cd70 3f2f
00000040: 58fb bcbe 5e0e 0000 4d01 e6aa b45e b82e
00000050: 43dd c3b7 67a1 d83d 7314 bebd d90d 0000
00000060: 73e4 193e ba0e 0000 c60d 0080 f83c 11ae
00000070: 8272 563e 9e10 0080 e075 7c2b 225f aa36
00000080: ce0d 0080 7b0f 0000 dd2a 583e 8bcc 2d32
00000090: 7ebf d13d bc0d 0080 3277 343d f402 83bc
000000a0: 260e 2733 15d4 d03e 890e 0000 8339 90a9
000000b0: 64d0 ef3d 67c7 a93d e345 2eb2 f1e2 0e2b
000000c0: 5610 0080 d035 b432 c00d 0080 1de4 c13e
000000d0: c024 193e 067d 24bc 3477 492d ac0d 0000
000000e0: 7492 3dac 05fa 3c2c cf0d 0080 1abf 1bb5
000000f0: fc0d 0080 af0d 0080 f00d 0080 877d 3a2c

cpu f8 [32]
1.091631247618352e-06 8.635462336314959e-07 0.00527251185849309 0.005451911129057407 1.0749622560979333e-06 1.0588166787783848e-06 7.118039206943649e-07 1.1175104646099498e-06
1.153144580712251e-06 1.0715143616835121e-06 1.0834463637365843e-06 8.756237548368517e-07 1.0530517329243594e-06 0.006491187494248152 3.386013247563824e-07 0.005953180603682995
8.451586381852394e-07 1.103225599763391e-06 1.0810537105498952e-06 6.444533369176497e-07 1.1029688948838157e-06 4.5243933755045873e-07 7.246269433380803e-07 7.505057055823272e-07
8.425506621279055e-07 1.176896830656915e-06 1.0509506864764262e-06 6.915227572790172e-07 8.5812860106671e-07 0.005366210825741291 1.0405850616734824e-06 4.2178729131592263e-07
00000000: 0000 0040 8550 b23e 0000 0040 cef9 ac3e
00000010: 0000 0020 a198 753f 0000 0040 be54 763f
00000020: 0000 0080 ed08 b23e 0000 0040 95c3 b13e
00000030: 0000 0060 59e2 a73e 0000 00c0 abbf b23e
00000040: 0000 00e0 b758 b33e 0000 0080 1efa b13e
00000050: 0000 00e0 5d2d b23e 0000 0000 8d61 ad3e
00000060: 0000 00a0 d2aa b13e 0000 00e0 8096 7a3f
00000070: 0000 0060 20b9 963e 0000 00c0 5c62 783f
00000080: 0000 0080 db5b ac3e 0000 0060 5182 b23e
00000090: 0000 0020 1723 b23e 0000 00e0 cf9f a53e
000000a0: 0000 0020 3781 b23e 0000 0040 d95c 9e3e
000000b0: 0000 0080 7f50 a83e 0000 0080 cb2e a93e
000000c0: 0000 0080 7445 ac3e 0000 00c0 bbbe b33e
000000d0: 0000 0080 cca1 b13e 0000 00a0 2234 a73e
000000e0: 0000 00c0 44cb ac3e 0000 0040 e1fa 753f
000000f0: 0000 0060 4775 b13e 0000 0020 404e 9c3e

fire4.conv1.bias f4 [32]
3.740239e-12 -4.941e-42 0.353629 -0.534612 -4.91e-42 -5.001e-42 4.912e-42 9.187571e-06
-3.97441e-09 4.907e-42 4.3570182e-08 -9.036744e-06 -4.947e-42 0.64455 1.8209719e-13 0.32319564
5.2e-42 1.8151383e-12 -4.1618534e-14 4.913e-42 -4.91e-42 -4.917e-42 -7.6455835e-06 -4.5974318e-08
9.110992e-07 -2.472554e-07 -4.923e-42 -4.938e-42 5.256e-42 0.29979518 6.4973835e-13 7.3497525e-10
00000000: 1499 832c c60d 0080 dc0e b53e 55dc 08bf
00000010: b00d 0080 f10d 0080 b10d 0000 5124 1a37
00000020: 488f 88b1 ae0d 0000 ec21 3b33 859c 17b7
00000030: ca0d 0080 3b01 253f f105 4d2a e679 a53e
00000040: 7f0e 0000 4075 ff2b e76e 3ba9 b20d 0000
00000050: b00d 0080 b50d 0080 8845 00b7 4c75 45b3
00000060: 4392 7435 86be 84b4 b90d 0080 c40d 0080
00000070: a70e 0000 c17e 993e 95e2 362b 4907 4a30

cpu f8 [128]
1.192455130194503e-07 1.0016508440457983e-06 7.514108233408479e-07 2.7450354878055805e-07 5.144817123436951e-07 6.051129730622051e-07 2.513491210720531e-07 1.7860040202322125e-07
9.859688816504786e-07 2.553949229877617e-07 0.0031246154103428125 5.450306730381271e-07 5.232322450865468e-07 2.2350968720274977e-07 6.364925866364501e-07 8.616412969786325e-07
2.0056225480402645e-07 5.858103691025462e-07 2.477347322837886e-07 3.433898427829263e-07 2.679640829228447e-07 1.1920928955078125e-07 9.876074500425602e-07 6.840238597760617e-07
3.9535299833914905e-07 7.267545356626215e-07 1.1920928955078125e-07 3.9815992636249575e-07 3.6707132267110865e-07 5.61964270673343e-07 5.739380526392779e-07 3.8604378005402396e-07
9.721836704557063e-07 1.0114224551216466e-06 1.0612430969558773e-06 2.3655067593608692e-07 9.282542805522098e-07 2.3635872992144868e-07 7.602428695463459e-07 3.552908367510099e-07
5.687573434443038e-07 3.7766815808026877e-07 3.9225480463755957e-07 7.317846097976144e-07 1.1920928955078125e-07 1.6271341962692532e-07 7.06492471636011e-07 1.6117412826588406e-07
2.1295886654115748e-07 3.211617638498865e-07 2.5993261942858226e-07 1.4486379029676755e-07 6.298612902355671e-07 1.1920928955078125e-07 1.016835767586599e-06 3.1527846999779285e-07
4.480447159949108e-07 8.109928444355319e-07 1.0316914540453581e-06 1.0027921462096856e-06 4.372465411961457e-07 6.234055263121263e-07 4.0131280343302933e-07 7.982787337823538e-07
2.270960663963706e-07 5.632899728880147e-07 1.1920928955078125e-07 7.032571716081293e-07 2.950989710370777e-07 2.921440511727269e-07 1.8940200163797272e-07 6.071524580875121e-07
6.371594736265251e-07 7.732275548733014e-07 5.570764187723398e-07 9.675518413132522e-07 9.817971431402839e-07 6.97048676556733e-07 1.9440832943473652e-07 1.8827600456461369e-07
1.0250872719552717e-06 1.013408677863481e-06 5.19853188052366e-07 2.0838227499098139e-07 2.1823286999733682e-07 1.0365555453972775e-06 4.948096830048598e-07 9.947688113243203e-07
5.568836627389828e-07 4.353063616235886e-07 3.299577997495362e-07 3.050433008411346e-07 1.1920928955078125e-07 2.387426718541974e-07 1.0026378731708974e-06 4.6495225092257897e-07
0.0033578004222363234 2.620364512040396e-07 9.220308356816531e-07 4.3733643906307407e-07 6.859671088932373e-07 3.5760115224547917e-07 7.282092155946884e-07 1.0017719205279718e-06
2.997285832861962e-07 3.5528628927750106e-07 9.503573892288841e-07 2.8695191645056184e-07 4.063956566824345e-07 1.5251180229824968e-07 4.062346192768018e-07 3.263982648604724e-07
1.020127342599153e-06 1.7736871882334526e-07 1.1920928955078125e-07 6.927509161869239e-07 2.0624752039566374e-07 7.190780593191448e-07 5.920627472733031e-07 2.4073776216937404e-07
1.4082300481277343e-07 1.6955863202383625e-07 1.1920928955078125e-07 4.269379303423193e-07 3.773164962694864e-07 3.091186613346508e-07 1.833425926633936e-07 3.2110321512845985e-07
00000000: 0000 00a0 3e01 803e 0000 00c0 0ece b03e
00000010: 0000 00e0 9136 a93e 0000 0060 ef6b 923e
00000020: 0000 0040 5d43 a13e 0000 0080 e14d a43e
00000030: 0000 0020 25de 903e 0000 00c0 a9f8 873e
00000040: 0000 0040 b48a b03e 0000 00c0 a623 913e
00000050: 0000 0020 cb98 693f 0000 0020 c749 a23e
00000060: 0000 00e0 878e a13e 0000 0000 bcff 8d3e
00000070: 0000 0000 6e5b a53e 0000 0040 71e9 ac3e
00000080: 0000 0040 44eb 8a3e 0000 00a0 12a8 a33e
00000090: 0000 00e0 0ca0 903e 0000 0080 640b 973e
000000a0: 0000 0080 96fb 913e 0000 0000 0000 803e
000000b0: 0000 00e0 bd91 b03e 0000 0060 b8f3 a63e
000000c0: 0000 00e0 1c88 9a3e 0000 0020 c662 a83e
000000d0: 0000 0000 0000 803e 0000 00e0 55b8 9a3e
000000e0: 0000 00c0 3ca2 983e 0000 0080 3cdb a23e
000000f0: 0000 0020 1742 a33e 0000 0080 2ee8 993e
00000100: 0000 0040 7f4f b03e 0000 00c0 06f8 b03e
00000110: 0000 0020 01ce b13e 0000 00c0 d1bf 8f3e
00000120: 0000 00c0 a425 af3e 0000 0060 39b9 8f3e
00000130: 0000 00c0 6f82 a93e 0000 00a0 d9d7 973e
00000140: 0000 00a0 9615 a33e 0000 0020 4a58 993e
00000150: 0000 00e0 e252 9a3e 0000 0060 fb8d a83e
00000160: 0000 0000 0000 803e 0000 0060 cad6 853e
00000170: 0000 0060 b9b4 a73e 0000 00a0 e6a1 853e
00000180: 0000 0000 3695 8c3e 0000 0060 848d 953e
00000190: 0000 00c0 9b71 913e 0000 0060 7b71 833e
000001a0: 0000 00a0 7722 a53e 0000 0000 0000 803e
000001b0: 0000 00c0 460f b13e 0000 0060 7128 953e
000001c0: 0000 0080 5911 9e3e 0000 0020 6036 ab3e
000001d0: 0000 00c0 144f b13e 0000 00a0 f5d2 b03e
000001e0: 0000 00a0 d657 9d3e 0000 0040 03eb a43e
000001f0: 0000 0060 80ee 9a3e 0000 0080 29c9 aa3e
00000200: 0000 0020 f67a 8e3e 0000 00c0 9fe6 a23e
00000210: 0000 0000 0000 803e 0000 00e0 ee98 a73e
00000220: 0000 0000 c3cd 933e 0000 0020 ff9a 933e
00000230: 0000 00a0 cd6b 893e 0000 0060 665f a43e
00000240: 0000 0080 2861 a53e 0000 0060 f9f1 a93e
00000250: 0000 0000 40b1 a23e 0000 0080 9a3b b03e
00000260: 0000 0060 c978 b03e 0000 0040 9a63 a73e
00000270: 0000 00c0 d117 8a3e 0000 0040 1d45 893e
00000280: 0000 0060 b732 b13e 0000 00a0 8e00 b13e
00000290: 0000 0040 8171 a13e 0000 00e0 f5f7 8b3e
000002a0: 0000 00a0 6c4a 8d3e 0000 00e0 f863 b13e
000002b0: 0000 0000 629a a03e 0000 00e0 7fb0 b03e
000002c0: 0000 0020 98af a23e 0000 00a0 8136 9d3e
000002d0: 0000 00c0 a124 963e 0000 00a0 9a78 943e
000002e0: 0000 0000 0000 803e 0000 0060 9105 903e
000002f0: 0000 0000 4cd2 b03e 0000 00a0 d133 9f3e
00000300: 0000 0060 d181 6b3f 0000 0080 c095 913e
00000310: 0000 0040 2ff0 ae3e 0000 0000 6259 9d3e
00000320: 0000 00a0 6904 a73e 0000 0080 8aff 973e
00000330: 0000 0000 456f a83e 0000 00e0 93ce b03e
00000340: 0000 0040 4c1d 943e 0000 00a0 c5d7 973e
00000350: 0000 0000 82e3 af3e 0000 00e0 cb41 933e
00000360: 0000 0000 d345 9b3e 0000 0000 4478 843e
00000370: 0000 00c0 0e43 9b3e 0000 00c0 7ae7 953e
00000380: 0000 00e0 691d b13e 0000 00c0 57ce 873e
00000390: 0000 0000 0000 803e 0000 0060 af3e a73e
000003a0: 0000 0060 9cae 8b3e 0000 0060 d520 a83e
000003b0: 0000 00c0 c7dd a33e 0000 00e0 d727 903e
000003c0: 0000 0040 a4e6 823e 0000 0080 fdc1 863e
000003d0: 0000 0000 0000 803e 0000 00e0 bca6 9c3e
000003e0: 0000 0080 3f52 993e 0000 0040 9ebe 943e
000003f0: 0000 0080 9a9b 883e 0000 00e0 828c 953e

fire4.conv2.bias f4 [128]
-1.1124375e-09 1.9307013e-12 -5.531e-42 1.8597146e-12 2.786249e-09 3.2104447e-12 3.0823583e-06 -1.2271138e-06
3.4524458e-12 -1.5724297e-08 -0.02577668 1.367912e-14 -6.857801e-13 -3.1319355e-14 -4.6754815e-13 1.9947029e-08
-5.98e-42 -6.7789316e-11 -4.0605184e-12 2.7038727e-15 -8.8588986e-10 2.467604e-11 -4.8288925e-11 7.208968e-15
7.488667e-14 4.914e-42 1.8675588e-09 -4.3880355e-12 -9.779944e-08 -2.4094225e-14 -6.162543e-05 -2.7979181e-12
4.0874887e-08 1.9406074e-12 1.6514444e-12 -3.807053e-09 -3.291418e-13 -2.5312064e-10 1.1171106e-11 8.7101273e-13
-1.07247075e-07 -2.9626987e-13 2.028442e-12 4.909e-42 1.8932349e-14 1.1620081e-12 2.6736043e-06 2.1649507e-10
1.9587538e-05 -2.4615601e-05 8.131218e-11 -1.3379312e-08 2.126719e-13 -5.026e-42 -3.9936367e-06 3.7833177e-09
5.625059e-08 -6.0404403e-05 5.217e-42 -4.92e-42 6.021e-42 4.8592e-10 7.0950326e-14 1.300112e-11
-5.698e-42 -2.3839317e-10 -4.913e-42 -5.723736e-08 2.232115e-12 2.6419367e-13 -1.6373831e-06 3.3229487e-08
3.0655345e-13 -4.909e-42 -1.5105044e-06 2.1488882e-13 6.263834e-07 -1.517433e-12 4.7074913e-14 -7.206184e-14
2.2303773e-05 5.313674e-13 7.728465e-12 -5.044051e-12 5.5241447e-08 -7.238365e-06 2.5497592e-13 -2.4270858e-13
3.379655e-08 3.018825e-11 -6.5832176e-13 -7.4724234e-08 7.4135498e-09 -3.3784558e-10 2.5956379e-05 1.248372e-13
0.025287224 -1.6157679e-09 7.1488453e-06 6.6721455e-09 3.7759382e-11 -1.1692659e-14 1.2962741e-05 -1.1946179e-10
2.2577526e-12 -1.1337118e-13 -2.9393242e-08 -6.920344e-08 -0.0001065488 -2.1367547e-11 2.2292712e-09 9.068791e-12
6.582084e-14 4.201318e-05 5.675e-42 -2.4423646e-10 -1.6779079e-06 1.2863247e-06 -1.3560878e-08 1.123718e-08
9.200845e-08 1.2009055e-09 -3.6506957e-09 -6.26e-42 5.469749e-13 -6.021e-42 4.933e-42 -6.15149e-13
00000000: 6ae4 98b0 6cdc 072c 6b0f 0080 a4dd 022c
00000010: 3678 3f31 3bea 612c 83da 4e36 4fb3 a4b5
00000020: bcf1 722c 1812 87b2 9e29 d3bc ce6b 7628
00000030: aa07 41ab c20c 0da9 659a 03ab fb57 ab32
00000040: ab10 0080 fe11 95ae e6dd 8eac a6d5 4227
00000050: f582 73b0 810d d92d 7f60 54ae 7fdd 0128
00000060: 3aa1 a829 b30d 0000 7156 0031 e963 9aac
00000070: d005 d2b3 8005 d9a8 e73c 81b8 d0e2 44ac
00000080: 6a8e 2f33 e08e 082c 8e6b e82b 31cf 82b1
00000090: 554a b9aa 9027 8baf 3086 442d 152b 752b
000000a0: b44f e6b3 fdc8 a6aa 2abd 0e2c af0d 0000
000000b0: 0687 aa28 c189 a32b 2c6c 3336 f209 6e2f
000000c0: eb4f a437 9a7d ceb7 b0ce b22e d6da 65b2
000000d0: 8072 6f2a 030e 0080 1401 86b6 6afe 8131
000000e0: 2e98 7133 bc5a 7db8 8b0e 0000 b70d 0080
000000f0: c910 0000 9591 0530 14c4 9f29 d7b7 642d
00000100: e20f 0080 db0e 83af b20d 0080 25d5 75b3
00000110: 3612 1d2c 52ba 942a 0ec4 dbb5 35b8 0e33
00000120: 0293 ac2a af0d 0080 89bc cab5 7cf1 712a
00000130: bd24 2835 498f d5ab ae01 5429 d344 a2a9
00000140: fd18 bb37 0e91 152b e9f5 072d c678 b1ac
00000150: 9d42 6d33 15e1 f2b6 e789 8f2a fea1 88aa
00000160: b327 1133 f3c4 042e 154d 39ab 1578 a0b3
00000170: 46ba fe31 8abb b9af e6bc d937 e08d 0c2a
00000180: 2727 cf3c c711 deb0 1de0 ef36 d040 e531
00000190: 4911 262e dfa2 52a8 8c7a 5937 8159 03af
000001a0: 0ee0 1e2c 094a ffa9 6c7c fcb2 fe9c 94b3
000001b0: f472 dfb8 70f3 bbad c131 1931 348a 1f2d
000001c0: 2237 9429 4f37 3038 d20f 0000 3a45 86af
000001d0: 7a34 e1b5 c8a5 ac35 5ff9 68b2 a40d 4132
000001e0: 2e96 c533 1b0d a530 b8df 7ab1 7311 0080
000001f0: b2f5 192b c910 0080 c00d 0000 2826 2dab

cpu f8 [128]
6.309624609457387e-07 0.004299947526305914 1.1093907232861966e-06 1.1201433380847448e-06 0.004231458064168692 1.0963841532429797e-06 7.987332537595648e-07 8.406783535974682e-07
0.003014935180544853 1.1176309726579348e-06 1.0620157127050334e-06 0.004060790408402681 1.1107293858003686e-06 0.002722294768318534 8.991110007627867e-07 1.1291409691693843e-06
7.17100590463815e-07 0.0021080526057630777 8.572221759095555e-07 1.1064463478760445e-06 0.0019680699333548546 0.0017931124893948436 1.1346002111167763e-06 0.004276534542441368
8.219210485549411e-07 0.0028164242394268513 1.0999980304404744e-06 0.0036970190703868866 1.0970418315991992e-06 8.017551635930431e-07 0.0029830632265657187 1.1213619472982828e-06
1.1188682265128591e-06 1.0916618293776992e-06 7.809717317286413e-07 0.0028302306309342384 4.816407681573764e-07 0.002064424566924572 1.0921404509645072e-06 0.0021183411590754986
8.408351277466863e-07 0.0037104489747434855 1.0543392363615567e-06 0.004215007647871971 1.0921324928858667e-06 0.002575517166405916 1.0384435427113203e-06 1.0969472441502148e-06
1.1168538094352698e-06 0.003552406094968319 0.003739302745088935 1.167604523288901e-06 7.490639859497605e-07 0.004031267017126083 1.1079137038905174e-06 1.0802829137901426e-06
0.0036899566184729338 1.1207331453988445e-06 7.150595706661989e-07 1.1096326488768682e-06 0.0020310317631810904 0.002205613534897566 1.091155922949838e-06 1.0756134543044027e-06
1.146359295489674e-06 7.840454827601206e-07 1.0428569794385112e-06 1.050819719239371e-06 0.0031063053756952286 5.460919396682584e-07 1.0929430800388218e-06 1.0796740070873057e-06
1.0819283033924876e-06 9.025948202179279e-07 0.004101112484931946 0.0049507757648825645 9.791939419301343e-07 1.1395105730116484e-06 1.0924376283583115e-06 8.318709774357558e-07
1.113829625865037e-06 1.0905924909820897e-06 1.0775112286864896e-06 1.0430198926769663e-06 0.0019374851835891604 1.0769974778668256e-06 1.0958112852677004e-06 6.783440653634898e-07
1.1384169056327664e-06 1.0882935157496831e-06 0.0031407431233674288 0.004023935180157423 1.1174059864060837e-06 1.1161577049279003e-06 0.003331157611683011 1.0915709935943596e-06
0.005183674860745668 0.002423317637294531 1.0636182423695573e-06 1.1162100008732523e-06 1.080669107977883e-06 5.065259074399364e-07 1.0959769269902608e-06 0.004233871586620808
1.071632823368418e-06 1.0972837571898708e-06 1.079421508620726e-06 0.004325897432863712 1.1113825166830793e-06 7.802865411576931e-07 1.1038932825613301e-06 6.17031219007913e-07
1.0950243449769914e-06 0.0042530023492872715 4.840736096412002e-07 1.0675311159502598e-06 1.0961041425616713e-06 1.1152062597830081e-06 1.182869027616107e-06 1.0801185226227972e-06
1.0934021474895417e-06 1.068531219061697e-06 0.004036737140268087 0.0033486923202872276 9.521355650576879e-07 0.0023747633676975965 0.0042351773008704185 1.0416998748041806e-06
00000000: 0000 0020 ed2b a53e 0000 0060 d29c 713f
00000010: 0000 0000 cc9c b23e 0000 00a0 faca b23e
00000020: 0000 0060 0155 713f 0000 0020 ef64 b23e
00000030: 0000 0000 11cd aa3e 0000 0040 5f35 ac3e
00000040: 0000 0000 c7b2 683f 0000 0040 30c0 b23e
00000050: 0000 00a0 52d1 b13e 0000 0020 0ca2 703f
00000060: 0000 00e0 8ba2 b23e 0000 00e0 104d 663f
00000070: 0000 0000 4e2b ae3e 0000 00a0 9ff1 b23e
00000080: 0000 00e0 d80f a83e 0000 0020 e844 613f
00000090: 0000 0080 7bc3 ac3e 0000 00a0 2690 b23e
000000a0: 0000 0080 571f 603f 0000 00e0 db60 5d3f
000000b0: 0000 0020 1209 b33e 0000 0080 4584 713f
000000c0: 0000 0080 3f94 ab3e 0000 0040 7812 673f
000000d0: 0000 00a0 7474 b23e 0000 0000 3649 6e3f
000000e0: 0000 0040 c267 b23e 0000 0040 06e7 aa3e
000000f0: 0000 00e0 ef6f 683f 0000 0080 36d0 b23e
00000100: 0000 00a0 80c5 b23e 0000 00e0 a650 b23e
00000110: 0000 0000 7f34 aa3e 0000 0080 6c2f 673f
00000120: 0000 0040 4329 a03e 0000 0080 69e9 603f
00000130: 0000 0020 b552 b23e 0000 00c0 7b5a 613f
00000140: 0000 0000 b836 ac3e 0000 0020 6065 6e3f
00000150: 0000 0040 5ab0 b13e 0000 0080 c143 713f
00000160: 0000 0060 ac52 b23e 0000 0040 4019 653f
00000170: 0000 00c0 146c b13e 0000 0040 5a67 b23e
00000180: 0000 00c0 d9bc b23e 0000 0080 ef19 6d3f
00000190: 0000 00e0 e2a1 6e3f 0000 00c0 d296 b33e
000001a0: 0000 0020 6922 a93e 0000 0000 1783 703f
000001b0: 0000 0000 7496 b23e 0000 00a0 c71f b23e
000001c0: 0000 0060 663a 6e3f 0000 0020 83cd b23e
000001d0: 0000 00a0 50fe a73e 0000 0000 d69d b23e
000001e0: 0000 00e0 61a3 603f 0000 00c0 8111 623f
000001f0: 0000 00a0 7a4e b23e 0000 0080 b90b b23e
00000200: 0000 0060 933b b33e 0000 0040 e64e aa3e
00000210: 0000 0060 097f b13e 0000 0080 3ca1 b13e
00000220: 0000 0000 6572 693f 0000 00e0 e452 a23e
00000230: 0000 00a0 2756 b23e 0000 0020 2a1d b23e
00000240: 0000 00c0 d826 b23e 0000 0000 3b49 ae3e
00000250: 0000 0000 54cc 703f 0000 00c0 4347 743f
00000260: 0000 0020 9b6d b03e 0000 0020 291e b33e
00000270: 0000 00e0 fb53 b23e 0000 00a0 b7e9 ab3e
00000280: 0000 00a0 dcaf b23e 0000 0020 0f4c b23e
00000290: 0000 0020 e013 b23e 0000 0080 bc7f b13e
000002a0: 0000 00e0 66be 5f3f 0000 0040 ab11 b23e
000002b0: 0000 0040 7962 b23e 0000 0060 eec2 a63e
000002c0: 0000 00a0 7619 b33e 0000 0060 2f42 b23e
000002d0: 0000 00a0 9dba 693f 0000 00e0 667b 703f
000002e0: 0000 00e0 38bf b23e 0000 0060 dcb9 b23e
000002f0: 0000 00a0 f149 6b3f 0000 0000 4350 b23e
00000300: 0000 0020 7a3b 753f 0000 00c0 10da 633f
00000310: 0000 00a0 34d8 b13e 0000 00e0 15ba b23e
00000320: 0000 0040 7021 b23e 0000 0040 06ff a03e
00000330: 0000 0060 2f63 b23e 0000 0040 8957 713f
00000340: 0000 00c0 a0fa b13e 0000 0040 cc68 b23e
00000350: 0000 0080 141c b23e 0000 0040 08b8 713f
00000360: 0000 0000 5aa5 b23e 0000 0040 9c2e aa3e
00000370: 0000 0080 2f85 b23e 0000 0000 42b4 a43e
00000380: 0000 0000 185f b23e 0000 00a0 986b 713f
00000390: 0000 0020 293e a03e 0000 00e0 02e9 b13e
000003a0: 0000 0040 bb63 b23e 0000 0040 c6b5 b23e
000003b0: 0000 0040 62d8 b33e 0000 00e0 121f b23e
000003c0: 0000 0060 2058 b23e 0000 0080 4eed b13e
000003d0: 0000 0060 d388 703f 0000 0080 b76e 6b3f
000003e0: 0000 0040 c8f2 af3e 0000 0060 3d74 633f
000003f0: 0000 00c0 e758 713f 0000 0020 117a b13e

fire4.conv3.bias f4 [128]
5.206e-42 -0.000906702 -5.05e-42 1.8931784e-06 -0.16005562 -5.09e-42 -4.919e-42 -5.876e-42
-0.03930432 -4.907e-42 -4.933e-42 0.006376303 -5.3357553e-06 0.10794945 4.96e-42 -9.734378e-11
-4.934e-42 -0.0058760205 -3.3815214e-13 -1.8057717e-07 -0.05542189 0.05224647 -1.8420817e-11 -0.045620956
1.3756696e-13 0.0857431 -1.14078025e-14 -0.011801793 9.515245e-08 -5.771727e-11 -0.058548298 4.99e-42
8.210836e-12 4.93e-42 4.91e-42 -0.16101764 7.043095e-09 0.18299425 3.6859255e-11 0.046700235
-5.24e-42 0.09811804 6.18e-42 0.055605892 5.5978977e-05 -0.03622249 1.3239154e-11 2.1860826e-10
1.03954605e-11 0.14831764 -0.14610636 -5.51e-42 -4.989e-42 -0.05354333 1.2200347e-05 -5.3e-42
0.04054882 -5.619e-42 -5.255e-42 1.2015874e-14 0.027461901 0.046953686 4.987e-42 5.164e-42
1.6661075e-12 1.1942179e-08 -1.1343082e-10 5.698e-42 -0.018455254 5.003e-42 -4.91e-42 4.914e-42
5.523e-42 4.905e-42 0.092527255 0.18756501 -5.649e-42 -8.1314715e-09 -1.0450081e-05 -7.9038836e-07
5.263e-42 -4.945e-42 -4.965e-42 -5.499e-42 -0.12532675 4.376553e-06 -5.242e-42 4.955e-42
-5.616e-42 -4.907e-42 -0.004176736 0.0625877 -2.332296e-08 -9.812223e-10 -0.095180914 -4.955e-42
0.078223936 -0.04861809 -4.916e-42 8.654265e-12 5.343e-42 -5.619e-42 -2.6756147e-13 -0.018078785
5.48e-42 4.906e-42 4.924e-42 0.037353475 -4.914e-42 -4.919e-42 -4.92e-42 -4.926e-42
4.913e-42 0.07621029 1.3478456e-06 -4.926e-42 5.028e-42 1.8364971e-09 5.514e-42 -1.3125023e-10
-5.014e-42 -4.92e-42 -0.034503672 0.03551824 5.092e-42 0.016055556 0.01783183 -5.104e-42
00000000: 830e 0000 beaf 6dba 140e 0080 1d19 fe35
00000010: 9fe5 23be 300e 0080 b60d 0080 6110 0080
00000020: 91fd 20bd ae0d 0080 c00d 0080 4ef0 d03b
00000030: ca09 b3b6 9a14 dd3d d40d 0000 ad0f d6ae
00000040: c10d 0080 a28b c0bb dc5c beaa ade4 41b4
00000050: 1002 63bd 6500 563d fe07 a2ad 0add 3abd
00000060: fae2 1a2a 149a af3d 3481 4da8 4f5c 41bc
00000070: 9d56 cc33 ded7 7dae 57d0 6fbd e90d 0000
00000080: 5172 102d be0d 0000 b00d 0000 cfe1 24be
00000090: b8ff f131 d862 3b3e d51b 222e bf48 3f3d
000000a0: 9b0e 0080 1cf2 c83d 3a11 0000 01c3 633d
000000b0: f8ca 6a38 095e 14bd d9e7 682d c15c 702f
000000c0: fee0 362d 94e0 173e e89c 15be 5c0f 0080
000000d0: e80d 0080 4050 5bbd 17b0 4c37 c60e 0080
000000e0: 8516 263d aa0f 0080 a60e 0080 7075 5828
000000f0: c8f7 e03c 8252 403d e70d 0000 650e 0000
00000100: d97b ea2b 422a 4d32 e06f f9ae e20f 0000
00000110: 792f 97bc f20d 0000 b00d 0080 b30d 0000
00000120: 650f 0000 ac0d 0000 ee7e bd3d 0b11 403e
00000130: bf0f 0080 97b2 0bb2 c252 2fb7 132b 54b5
00000140: ac0e 0000 c90d 0080 d70d 0080 540f 0080
00000150: a855 00be 4eda 9236 9d0e 0080 d00d 0000
00000160: a80f 0080 ae0d 0080 00dd 88bb fb2d 803d
00000170: bb57 c8b2 b1db 86b0 36ee c2bd d00d 0080
00000180: df33 a03d c323 47bd b40d 0080 583f 182d
00000190: e50e 0000 aa0f 0080 ac9f 96aa f619 94bc
000001a0: 470f 0000 ad0d 0000 ba0d 0000 f5ff 183d
000001b0: b30d 0080 b60d 0080 b70d 0080 bb0d 0080
000001c0: b20d 0000 2414 9c3d 9fe7 b435 bb0d 0080
000001d0: 040e 0000 ff67 fc30 5f0f 0000 a84f 10af
000001e0: fa0d 0080 b70d 0080 b953 0dbd 937b 113d
000001f0: 320e 0000 f186 833c 0f14 923c 3a0e 0080
