python/squeezenet_int8_qat.pth (torch, 834739 bytes, 52 tensors)

cpu f8 [96]
00000000: 0000 0060 370c 563f 0000 00a0 b22b 593f
00000010: 0000 00e0 afbc 603f 0000 0040 e6e2 423f
00000020: 0000 0060 cc19 8c3f 0000 00e0 3e76 4a3f
00000030: 0000 0000 0000 803e 0000 00c0 c0ab 743f
00000040: 0000 0000 0000 803e 0000 00c0 a0e4 223f
00000050: 0000 0020 6bd7 5c3f 0000 0040 76b3 4c3f
00000060: 0000 0040 97fc 583f 0000 00a0 13d4 6f3f
00000070: 0000 00e0 d608 723f 0000 0080 7feb 753f
00000080: 0000 0080 8882 553f 0000 0060 8420 4e3f
00000090: 0000 0040 e8ea 583f 0000 00a0 1ea4 6a3f
000000a0: 0000 00c0 415a 613f 0000 0020 b7dd 3c3f
000000b0: 0000 0000 0000 803e 0000 00a0 9362 563f
000000c0: 0000 0020 eb7e 533f 0000 0000 48f2 503f
000000d0: 0000 0000 0000 803e 0000 00c0 4563 6b3f
000000e0: 0000 00e0 e3af 653f 0000 0000 d5e7 813f
000000f0: 0000 0020 03cb 603f 0000 0020 cb7a 793f
00000100: 0000 0000 3fd7 653f 0000 00e0 a288 433f
00000110: 0000 0020 1c39 f53e 0000 0020 5fe3 6d3f
00000120: 0000 00a0 503d 6e3f 0000 0040 9194 453f
00000130: 0000 0020 ab1e 3b3f 0000 00c0 ca4f 4c3f
00000140: 0000 0060 7e18 6c3f 0000 0080 49dd 3a3f
00000150: 0000 00c0 e196 553f 0000 0000 f195 603f
00000160: 0000 00c0 05a2 493f 0000 0020 dd14 703f
00000170: 0000 0000 20bc 5e3f 0000 0000 7afa 403f
00000180: 0000 00a0 e316 4c3f 0000 0060 2b9b 693f
00000190: 0000 00c0 6639 713f 0000 0080 3186 803f
000001a0: 0000 00e0 96d8 3d3f 0000 0020 3196 633f
000001b0: 0000 0000 0000 803e 0000 00a0 82c5 6b3f
000001c0: 0000 0000 0000 803e 0000 0040 deef 593f
000001d0: 0000 0020 de0f 463f 0000 0040 96e8 603f
000001e0: 0000 0060 52f5 0a3f 0000 00e0 5903 823f
000001f0: 0000 00e0 b9c5 693f 0000 0020 8f25 033f
00000200: 0000 0060 2cc5 833f 0000 0040 620d 023f
00000210: 0000 0060 56e3 6b3f 0000 0080 e4d5 4a3f
00000220: 0000 0080 5d02 423f 0000 0000 9761 5d3f
00000230: 0000 0040 5d42 513f 0000 0020 0d16 673f
00000240: 0000 0000 0000 803e 0000 0000 1337 5f3f
00000250: 0000 00e0 4c65 613f 0000 0080 03a7 513f
00000260: 0000 00c0 d5bc 593f 0000 0080 3db3 783f
00000270: 0000 0060 2983 3a3f 0000 0020 4139 5a3f
00000280: 0000 0060 737b 663f 0000 0000 1e1d 823f
00000290: 0000 0020 f302 603f 0000 00a0 63ef 5b3f
000002a0: 0000 0000 0000 803e 0000 0000 db34 703f
000002b0: 0000 0040 a13d 173f 0000 0000 7367 583f
000002c0: 0000 00a0 9469 603f 0000 0060 fd81 3c3f
000002d0: 0000 0040 266a 6e3f 0000 0000 9d7f 633f
000002e0: 0000 0020 c902 723f 0000 0020 34bf 593f
000002f0: 0000 0040 f626 5e3f 0000 0060 81ce 823f
0.001345686032436788 0.0015362972626462579 0.0020430979784578085 0.0005763649241998792 0.013721081428229809 0.0008075530058704317 1.1920928955078125e-07 0.005046608857810497
1.1920928955078125e-07 0.0001441427448298782 0.0017603441374376416 0.000875885714776814 0.0015250660944730043 0.003885305719450116 0.004402961116284132 0.005351541563868523
0.0013128598220646381 0.0009194036829285324 0.00152084999717772 0.0032520864624530077 0.002118233125656843 0.00044046135735698044 1.1920928955078125e-07 0.0013662759447470307
0.0011899276869371533 0.0010343268513679504 1.1920928955078125e-07 0.0033432352356612682 0.002647347515448928 0.008742965757846832 0.0020499287638813257 0.006220620591193438
0.0026661138981580734 0.0005961222923360765 2.0239911464159377e-05 0.00364845828153193 0.0036913466174155474 0.0006585797527804971 0.000413815287174657 0.0008640041342005134
0.003429648233577609 0.0004099182551726699 0.0013177113141864538 0.0020246226340532303 0.0007822540355846286 0.003926147241145372 0.0018759071826934814 0.0005181403830647469
0.0008572207880206406 0.0031257483642548323 0.004205132834613323 0.008068453520536423 0.00045541461440734565 0.0023909530136734247 1.1920928955078125e-07 0.003390078665688634
1.1920928955078125e-07 0.0015830679330974817 0.000673278293106705 0.002064031083136797 5.141885412740521e-05 0.008795454166829586 0.003146040951833129 3.65194609912578e-05
0.009653422050178051 3.4431992389727384e-05 0.003404301358386874 0.0008189550135284662 0.0005495983641594648 0.0017932867631316185 0.001053420128300786 0.0028181320521980524
1.1920928955078125e-07 0.0019052205607295036 0.0021234990563243628 0.001077416818588972 0.0015709006693214178 0.006030311807990074 0.00040454635745845735 0.001600564573891461
0.002744412748143077 0.00884459912776947 0.001954531529918313 0.0017050240421667695 1.1920928955078125e-07 0.003956656903028488 8.8656393927522e-05 0.0014895079657435417
0.0020034697372466326 0.0004349940863903612 0.0037127253599464893 0.002380186691880226 0.004397187847644091 0.0015714654000476003 0.0018403439316898584 0.009182940237224102

conv1.bias f4 [96]
00000000: 6d8b bbbe ed7e cfbe 1e5d a5bd 532d 75be
00000010: cccd 21be 35dd 633c 768b 0000 03e4 02bd
00000020: f6c4 34ac 8ed9 3cbe abab 0abe 5318 a83c
00000030: 0a22 c4bd ec4a 01bd cf6e 0cbe b511 32be
00000040: 3629 00be ccae b2be 63f2 23bd d6cf 74bd
00000050: 71de 99be d22c c8bd 8968 0000 373e 443d
00000060: 1c5e a9be 6168 62be 878a 0000 c406 6b3d
00000070: 877b 65bd 4434 25be 3192 25be 1e8d 693d
00000080: 6a24 bbbe 7bce 18be 5108 9fbd 0fc4 9abd
00000090: 1054 58be 4e61 63be 9c9f aebe f8a2 8bbd
000000a0: 98fb 59be bbc8 e5be be18 1fbe 4c69 b33c
000000b0: fc71 e7be 9cff 34be 2ead 783d f37f babe
000000c0: 96d3 3fbe 61ea 393e 1eac 87bd 75a1 40be
000000d0: 5f44 dcbe e75a a13d 90ea 0100 beac b6bd
000000e0: ca88 0080 ca4f 66bd d97c 61be 5c91 1a3e
000000f0: 228d 14be 2198 a9be 40bd 2c3c 158f 36be
00000100: 0ac4 30be e1bc dbbd b7c4 67be ba39 64be
00000110: 0986 94be ee61 713c a7dc bebe c949 e03c
00000120: 7989 0000 6911 e3bd 8f97 0ebf d9f2 113c
00000130: 3bf5 6fbe e75e 6bbd 78da bfbe a7d4 b7bd
00000140: 311c b03d e2d4 47be de5a 5abe 280b 1cbe
00000150: 4d8a 0000 defa 93be e779 85be d709 ecbe
00000160: 2395 f5bd 8f41 7cbd 46a9 8dbe b7b0 88be
00000170: d1ca 89be 8cc7 45bc 9b45 28be a32b 7abe
-0.3662981 -0.40526524 -0.08074401 -0.23943071 -0.15801162 0.01390772 5.0029e-41 -0.03195573
-2.5688874e-12 -0.18442366 -0.13542049 0.020519411 -0.09576805 -0.03156559 -0.13714145 -0.17389567
-0.1251572 -0.34898984 -0.04002608 -0.05976852 -0.30052522 -0.09774174 3.75e-41 0.047910895
-0.33079612 -0.2211013 4.9694e-41 0.0573795 -0.056026008 -0.16133219 -0.16169049 0.057019345
-0.3655122 -0.14922516 -0.07765258 -0.075569265 -0.21125817 -0.22205088 -0.34106147 -0.06818193
-0.21287382 -0.44879708 -0.15536782 0.021900795 -0.4520415 -0.17675632 0.060712032 -0.36425743
-0.18733057 0.18155815 -0.066246256 -0.18811591 -0.43020913 0.07878666 1.7598e-40 -0.08919667
-4.907e-41 -0.056228437 -0.22020282 0.15094513 -0.14506963 -0.33123878 0.010543168 -0.17828019
-0.17262283 -0.10729385 -0.22633635 -0.22287646 -0.2900851 0.014732821 -0.3727772 0.027378934
4.9316e-41 -0.11087305 -0.5570001 0.008907997 -0.23433392 -0.057463553 -0.37471366 -0.08976107
0.08599127 -0.19514802 -0.21323726 -0.15238631 4.9613e-41 -0.28902334 -0.26069567 -0.46101257
-0.11991336 -0.06158596 -0.27668208 -0.26697323 -0.2691255 -0.012071501 -0.16432802 -0.24430709

cpu f8 [16]
00000000: 0000 0000 5aec 723f 0000 0080 97fd 7c3f
00000010: 0000 00c0 9dbf 7a3f 0000 00e0 0e8d 733f
00000020: 0000 00a0 e519 723f 0000 0020 2b72 753f
00000030: 0000 0000 6369 733f 0000 00e0 4fda 773f
00000040: 0000 00a0 e73f 783f 0000 0000 a296 713f
00000050: 0000 0000 0000 803e 0000 00c0 df03 7a3f
00000060: 0000 0000 8b9d 793f 0000 00c0 1140 753f
00000070: 0000 00e0 5181 753f 0000 00c0 3593 733f
0.004619933664798737 0.007077781483530998 0.006530395708978176 0.004773195367306471 0.004419228527694941 0.005235832650214434 0.004739176481962204 0.005823432933539152
0.005920319352298975 0.004294045269489288 1.1920928955078125e-07 0.0063513508066535 0.0062537603080272675 0.005188054405152798 0.005250282119959593 0.004779062233865261

fire2.conv1.bias f4 [16]
00000000: feb1 6f3e e984 47bd 549c b43d 349d 0dbe
00000010: 153c 813e 4e46 113e 270d ccbd 2658 743e
00000020: a1f2 0cbe 7f3b c33e 438c 0080 f280 933b
00000030: ecba d83e 6f01 b33c f063 22be 49f9 0d3f
0.23407742 -0.048710737 0.0881888 -0.138295 0.2524115 0.14186975 -0.09963446 0.23861751
-0.1376443 0.3813133 -5.0316e-41 0.0045014555 0.4233011 0.02185127 -0.15858436 0.55458504

cpu f8 [64]
00000000: 0000 00c0 83f4 7e3f 0000 00a0 06b5 733f
00000010: 0000 0040 1ba2 7a3f 0000 0020 527e 783f
00000020: 0000 0080 a906 7c3f 0000 0000 2736 713f
00000030: 0000 0040 42e0 733f 0000 0020 9920 7a3f
00000040: 0000 0020 bebf 683f 0000 00a0 1088 7e3f
00000050: 0000 0000 bf7c 693f 0000 00e0 8ba1 803f
00000060: 0000 00c0 4245 5e3f 0000 0060 4b6e 643f
00000070: 0000 0000 0000 803e 0000 0080 0888 7d3f
00000080: 0000 0020 ccd2 5f3f 0000 0060 01a5 6b3f
00000090: 0000 0080 dd19 743f 0000 0040 d7f1 6d3f
000000a0: 0000 0000 0000 803e 0000 00e0 e25d 753f
000000b0: 0000 0040 0a4f 793f 0000 0060 aeb1 823f
000000c0: 0000 00a0 ac3c 673f 0000 0060 e484 823f
000000d0: 0000 0060 6d5b 723f 0000 0000 5116 6d3f
000000e0: 0000 0040 b1fe 683f 0000 00e0 6072 603f
000000f0: 0000 00a0 ce00 6f3f 0000 0040 bf29 653f
00000100: 0000 00c0 c196 783f 0000 0060 23b4 6a3f
00000110: 0000 00a0 a21e 703f 0000 0060 562a 5e3f
00000120: 0000 0000 0000 803e 0000 0020 239c 613f
00000130: 0000 00c0 b2f1 603f 0000 0040 cbe2 6c3f
00000140: 0000 0020 fa4f 743f 0000 0000 8d5d 633f
00000150: 0000 0000 0000 803e 0000 00c0 380b 7b3f
00000160: 0000 0040 af3b 683f 0000 00c0 a545 693f
00000170: 0000 0020 f254 543f 0000 0060 03cc 6d3f
00000180: 0000 0000 bb2a 7a3f 0000 00e0 51d8 5f3f
00000190: 0000 0000 0000 803e 0000 0080 9f45 833f
000001a0: 0000 0020 302c 773f 0000 0000 5b74 743f
000001b0: 0000 0000 0000 803e 0000 00c0 1abc 703f
000001c0: 0000 0060 5e21 6b3f 0000 0000 0000 803e
000001d0: 0000 0020 c499 743f 0000 0060 8197 713f
000001e0: 0000 0040 ade1 723f 0000 00a0 c123 793f
000001f0: 0000 00a0 38ab 803f 0000 00e0 1d5f 5d3f
0.007557406090199947 0.0048113116063177586 0.006502253003418446 0.005979843903332949 0.006842290982604027 0.0042020343244075775 0.004852541722357273 0.006378744263201952
0.0030211175326257944 0.007453980389982462 0.0031112413853406906 0.008120625279843807 0.0018475677352398634 0.002493998734280467 1.1920928955078125e-07 0.007209809496998787
0.0019423478515818715 0.003374579129740596 0.0049074795097112656 0.003655357751995325 1.1920928955078125e-07 0.005216490011662245 0.006178894080221653 0.009127962402999401
0.0028365489561110735 0.009042534045875072 0.004481723066419363 0.0035506803542375565 0.003051134292036295 0.002007664879783988 0.00378456455655396 0.0025833831168711185
0.0060031479224562645 0.0032597247045487165 0.003935466054826975 0.001841148710809648 1.1920928955078125e-07 0.0021496473345905542 0.002068375702947378 0.0035261125303804874
0.0049590845592319965 0.002363944426178932 1.1920928955078125e-07 0.0066024987027049065 0.002958147320896387 0.0030849683098495007 0.00124095578212291 0.003637320129200816
0.006388407200574875 0.0019436645088717341 1.1920928955078125e-07 0.009410139173269272 0.0056573753245174885 0.004993777722120285 1.1920928955078125e-07 0.004085640422999859
0.003311809850856662 1.1920928955078125e-07 0.005029455292969942 0.004294877406209707 0.004609753377735615 0.0061376155354082584 0.008139078505337238 0.001792697119526565

fire2.conv2.bias f4 [64]
00000000: 5796 ae3c d5e5 4d3d 144e 093d 18b2 553e
00000010: 13ad d3be 85ec 91be eff8 2ebd 9170 06bf
00000020: 555e 46bd 594f 3b3e f8a7 8a3d 28ae adbe
00000030: 57c2 88be b09c 843e 5489 0000 3155 d0bb
00000040: 700a 9cbd 85f7 023e 811d 583e f65c c4be
00000050: e091 0080 fcb3 e9bd a7c2 3e3d d526 78bd
00000060: 2386 4cbd 7448 9d3e e8b4 cabe 8fc8 8a3e
00000070: e0f6 6abd 0a02 073e 96fc 46be 8f67 e4bd
00000080: 8c7e e83e 3fa8 e8bb 660a 9f3c 19bb cfbd
00000090: 608a 0000 69e2 b6bd a53c 28be 7cdb 36be
000000a0: 87a2 3b3e 2f02 fdbe 8f89 0080 d679 febc
000000b0: 2dcf d1be 59c5 983d 29d0 07be 604a 8c3e
000000c0: a2e5 13be 9b99 0e3d 918b 0000 5d28 18bd
000000d0: 96e2 a4bc 1af5 d53e ae98 9fa9 c6c5 d8bd
000000e0: 0102 75be 5d89 0080 253b d93e adfe d3bd
000000f0: ad9a 273e 00e9 243f 0361 013e 71d5 d6be
0.021311922 0.050268013 0.033521727 0.20868719 -0.41342983 -0.28500763 -0.04271787 -0.5251551
-0.048429806 0.18291987 0.06770319 -0.33921933 -0.2671077 0.25900793 4.9264e-41 -0.006357812
-0.07619178 0.12789734 0.21105005 -0.38352174 -5.233e-41 -0.114112824 0.046572354 -0.060583908
-0.04993261 0.3071934 -0.39591146 0.2710614 -0.057364345 0.13184372 -0.19432291 -0.11152565
0.45409048 -0.0071001346 0.019414138 -0.10143108 4.964e-41 -0.08929903 -0.16429384 -0.17857164
0.18323718 -0.49415728 -4.9347e-41 -0.031063955 -0.40978375 0.07459516 -0.13263 0.27400494
-0.14443067 0.03481446 5.0067e-41 -0.03714787 -0.020127576 0.4178856 -7.087504e-14 -0.10584597
-0.23926546 -4.9277e-41 0.42427936 -0.1035131 0.16367598 0.6441803 0.12634663 -0.41959718

cpu f8 [64]
00000000: 0000 00a0 64fd 623f 0000 0040 f36d 6c3f
00000010: 0000 00c0 c6d4 6f3f 0000 00c0 977c 733f
00000020: 0000 0040 2ff7 703f 0000 0080 3abf 713f
00000030: 0000 0020 99d1 733f 0000 00e0 d20c 703f
00000040: 0000 0080 28a3 673f 0000 0060 52fd 663f
00000050: 0000 0060 26e2 733f 0000 00e0 afeb 6a3f
00000060: 0000 00c0 ceec 743f 0000 0060 c600 6c3f
00000070: 0000 0000 e6b1 6f3f 0000 0000 f93e 613f
00000080: 0000 0060 01f5 693f 0000 0080 8095 6c3f
00000090: 0000 0000 6bf8 733f 0000 0080 2119 743f
000000a0: 0000 00c0 9889 783f 0000 0000 6eb9 6f3f
000000b0: 0000 0060 c560 6c3f 0000 0020 2122 663f
000000c0: 0000 00a0 ea95 6d3f 0000 0080 e5e0 723f
000000d0: 0000 00a0 2068 713f 0000 0020 d81d 763f
000000e0: 0000 0080 836f 673f 0000 0020 eb00 723f
000000f0: 0000 0000 9307 673f 0000 0060 089c 733f
00000100: 0000 0060 8be1 713f 0000 00c0 916c 733f
00000110: 0000 00e0 354a 773f 0000 0080 d5e7 5f3f
00000120: 0000 0000 19e5 753f 0000 00c0 0042 703f
00000130: 0000 0060 aab7 6d3f 0000 00c0 49ba 723f
00000140: 0000 00a0 4f69 6c3f 0000 0060 3969 6e3f
00000150: 0000 0000 4019 763f 0000 0080 01db 653f
00000160: 0000 0040 2bd2 433f 0000 0000 89fa 6c3f
00000170: 0000 0040 556f 703f 0000 0000 6d00 743f
00000180: 0000 0080 f494 703f 0000 0020 6433 6b3f
00000190: 0000 0040 1c7d 733f 0000 0060 5431 7b3f
000001a0: 0000 00e0 cadf 703f 0000 0000 0000 803e
000001b0: 0000 00a0 9ff7 723f 0000 0020 9471 6a3f
000001c0: 0000 0060 a0ba 6d3f 0000 00e0 8241 623f
000001d0: 0000 0060 1af2 613f 0000 0060 c979 733f
000001e0: 0000 0060 d158 703f 0000 00e0 5002 753f
000001f0: 0000 0020 9c6e 6c3f 0000 00c0 4624 673f
0.002318092854693532 0.003470397088676691 0.003885639365762472 0.004757492803037167 0.004141983576118946 0.004332760348916054 0.004838560242205858 0.003918479662388563
0.0028854170814156532 0.0028063401114195585 0.004854345228523016 0.0032862124498933554 0.005108649842441082 0.0034183382522314787 0.0038690082728862762 0.0021052230149507523
0.003168585477396846 0.003489256836473942 0.004875581711530685 0.004906779155135155 0.005990597419440746 0.0038725994527339935 0.0034641127567738295 0.0027018210384994745
0.003611524822190404 0.004609009250998497 0.004249694291502237 0.005399555433541536 0.0028607910498976707 0.004395407158881426 0.002811228856444359 0.004787476267665625
0.004365486558526754 0.004742211662232876 0.005686006974428892 0.0019473633728921413 0.005345437675714493 0.003969195298850536 0.003627617610618472 0.004572189413011074
0.0034681849647313356 0.0037122841458767653 0.005395174026489258 0.0026679066941142082 0.0006048880750313401 0.003537433221936226 0.004012425430119038 0.004883218556642532
0.004048304632306099 0.003320403629913926 0.004757986404001713 0.006638841237872839 0.004119675140827894 1.1920928955078125e-07 0.004630683455616236 0.003227986628189683
0.003629029495641589 0.0022285038139671087 0.002190639032050967 0.004754816647619009 0.0039909533224999905 0.005129161756485701 0.0034707116428762674 0.0028249151073396206

fire2.conv3.bias f4 [64]
00000000: 505c c6bd f3f1 8f3d 0627 11bd f863 a23e
00000010: bf57 143c 3eb3 b93d 8046 0b3d 213b 47bd
00000020: 77d8 97bd 4231 eabd 921c 2d3e f073 40be
00000030: baa7 553d b39b 5f3d dc69 afbd 10a2 58bd
00000040: e144 133d 97c1 cfbd cfb0 553e dc88 6e3e
00000050: cd4a 8e3e c78d 3fbe 3878 4d3e c26c 0cbd
00000060: 0a67 ccbd 1330 08be 29f1 513d 89ab 7c3c
00000070: 1e76 c13c 4f59 753e e444 57be 038e 5f3e
00000080: 3d90 77be 9e1f a13b b726 ce3d dc3d 7dbd
00000090: 163b 60be 5d2f d93d 8dcc d1bd a6a7 2a3e
000000a0: 9233 00bd 77f6 2fbe 3ddc ef3d e2cb dd3d
000000b0: ca40 3abc 1c3e c0bd 658b 1c3b d039 fabd
000000c0: 373d 2f3e ee11 253e afd4 0bbe a06c 7fbe
000000d0: 6a6b 8ebe dd8d 0080 3bd6 24be a5bd 9d3e
000000e0: 2471 083e 00c1 283d ff5e 80be d4e7 df3d
000000f0: d9b2 e0be 343e dc3d 3f67 13be a03e 753e
-0.09685576 0.0702857 -0.035437606 0.31716895 0.009054123 0.09067391 0.03400278 -0.048640374
-0.07414334 -0.114351764 0.1690543 -0.18794227 0.05216191 0.054591846 -0.08565113 -0.05288893
0.03595436 -0.10144346 0.20868228 0.23294395 0.27791443 -0.18706428 0.20065391 -0.034283407
-0.09980591 -0.13299589 0.05125538 0.015421757 0.023615893 0.2395985 -0.21022373 0.21831517
-0.24176116 0.004917099 0.10065978 -0.06182657 -0.2189754 0.10604737 -0.10244093 0.16665515
-0.03129918 -0.17183863 0.11711929 0.10829903 -0.011367986 -0.093868464 0.0023886797 -0.12218058
0.17113195 0.16120121 -0.13655351 -0.24943781 -0.27816325 -5.0891e-41 -0.16097347 0.3080875
0.1332441 0.041199684 -0.25072476 0.109328896 -0.4388645 0.10754052 -0.14394854 0.23949671

cpu f8 [16]
00000000: 0000 0060 a299 743f 0000 0020 6b91 703f
00000010: 0000 0020 95bb 733f 0000 0040 86dc 6e3f
00000020: 0000 00a0 b395 753f 0000 0080 0f79 723f
00000030: 0000 00a0 dd32 6d3f 0000 0020 2cba 713f
00000040: 0000 00a0 7390 733f 0000 0020 45a6 7b3f
00000050: 0000 0080 74b4 723f 0000 0060 32c7 743f
00000060: 0000 0000 5c9d 743f 0000 0020 0443 6f3f
00000070: 0000 00c0 86b5 7b3f 0000 00e0 f5dc 703f
0.005029329564422369 0.004044931847602129 0.004817564506083727 0.0037672636099159718 0.0052697197534143925 0.004509983584284782 0.0035642937291413546 0.004327938426285982
0.00477643171325326 0.006750364322215319 0.004566626623272896 0.005072781350463629 0.00503288209438324 0.00381613546051085 0.006764913909137249 0.004116974305361509

fire3.conv1.bias f4 [16]
00000000: 7314 c83d e493 bf3d 35b5 813e b0c4 653e
00000010: 1b2f 4b3d 5c56 0e3f d1f4 713e 0e73 6b3d
00000020: 1b99 e33d 892c 583d 6a5c 033f 5054 243e
00000030: 3ebb 053e 5af6 bf3e 71f0 cf3d cccf ac3c
0.097695254 0.0935438 0.25333562 0.22438312 0.04960547 0.55600524 0.23628546 0.05748277
0.11113187 0.052776847 0.5131289 0.16047788 0.13059708 0.3749264 0.101532824 0.021095179

cpu f8 [64]
00000000: 0000 0060 6efc 653f 0000 0060 9026 693f
00000010: 0000 00c0 85bc 613f 0000 0020 7eb8 7f3f
00000020: 0000 0080 457f 6a3f 0000 0040 8245 703f
00000030: 0000 0020 6560 5b3f 0000 0000 0000 803e
00000040: 0000 0080 0086 733f 0000 0080 9844 783f
00000050: 0000 0000 0000 803e 0000 00e0 d68b 673f
00000060: 0000 0000 0000 803e 0000 0000 0000 803e
00000070: 0000 0020 96e3 753f 0000 00c0 9dbb 7c3f
00000080: 0000 0040 fc78 7b3f 0000 0040 b340 763f
00000090: 0000 00a0 17d0 743f 0000 0000 0000 803e
000000a0: 0000 0080 ccca 803f 0000 0040 197c 603f
000000b0: 0000 0000 a70d 673f 0000 0060 fa77 823f
000000c0: 0000 0000 0000 803e 0000 0000 0000 803e
000000d0: 0000 0000 0000 803e 0000 0000 0000 803e
000000e0: 0000 0080 5b25 5f3f 0000 0020 9e35 743f
000000f0: 0000 0000 e215 4e3f 0000 0040 551e 613f
00000100: 0000 0000 966e 643f 0000 0040 287d 703f
00000110: 0000 0060 823e 733f 0000 00e0 7252 753f
00000120: 0000 00a0 4b7d 703f 0000 0000 1427 6c3f
00000130: 0000 0000 cf08 743f 0000 00a0 4d5e 783f
00000140: 0000 00a0 d7ce 7c3f 0000 00a0 ae3a 683f
00000150: 0000 0040 ee07 753f 0000 0000 0000 803e
00000160: 0000 0080 a289 7e3f 0000 0000 06f2 5c3f
00000170: 0000 0080 4356 7e3f 0000 0000 1f95 3b3f
00000180: 0000 0020 078e 7e3f 0000 0000 0000 803e
00000190: 0000 0060 ca74 6e3f 0000 0080 4237 5f3f
000001a0: 0000 00a0 6264 703f 0000 0000 0000 803e
000001b0: 0000 0000 0000 803e 0000 0000 0000 803e
000001c0: 0000 0000 056c 623f 0000 0020 cfc4 7b3f
000001d0: 0000 0000 416d 6c3f 0000 0020 a56c 4e3f
000001e0: 0000 0000 0000 803e 0000 0080 b3ef 663f
000001f0: 0000 00c0 00e5 653f 0000 0080 908c 713f
0.002683845115825534 0.003070146543905139 0.002165089827030897 0.0077443053014576435 0.0032345158979296684 0.003972538746893406 0.001670931582339108 1.1920928955078125e-07
0.004766466096043587 0.0059247929602861404 1.1920928955078125e-07 0.0028742977883666754 1.1920928955078125e-07 1.1920928955078125e-07 0.005343996454030275 0.007014862261712551
0.006707177497446537 0.005432796664535999 0.005081264767795801 1.1920928955078125e-07 0.008199308067560196 0.0020122998394072056 0.002814127132296562 0.009017902426421642
1.1920928955078125e-07 1.1920928955078125e-07 1.1920928955078125e-07 1.1920928955078125e-07 0.0019009965471923351 0.0049339463002979755 0.000918135978281498 0.0020896592177450657
0.0024941377341747284 0.004025609232485294 0.0046982853673398495 0.005205582361668348 0.004025741014629602 0.0034366026520729065 0.004891213029623032 0.005949309561401606
0.007033197674900293 0.0029576693195849657 0.005134516395628452 1.1920928955078125e-07 0.007455477491021156 0.0017666872590780258 0.007406486198306084 0.0004208756145089865
0.007459667045623064 1.1920928955078125e-07 0.003717799438163638 0.0019052647985517979 0.004001984838396311 1.1920928955078125e-07 1.1920928955078125e-07 1.1920928955078125e-07
0.0022487733513116837 0.006779488641768694 0.0034700650721788406 0.0009284788393415511 1.1920928955078125e-07 0.002799845300614834 0.0026726736687123775 0.004284443333745003

fire3.conv2.bias f4 [64]
00000000: 8a73 143e 77ba 7bbe 1dcb df3d 88e5 00be
00000010: 0f38 513e ab89 dcbd 3d23 35be c308 0100
00000020: 37fb cdbc 888a 82bd 97af 0080 0592 493e
00000030: a660 0000 5128 0080 82e1 473c 574f 023e
00000040: cb35 223f 7928 dbbd 0091 8ebe 8530 0100
00000050: c557 903d 21e6 88be 5ca7 89bd 2213 8c3e
00000060: 6c54 0380 5989 0080 12cd 0100 4db3 0000
00000070: c784 ec3d d9d2 8dbd 8697 803e b483 e23e
00000080: 7f77 22be 163b 1fbe 27bd 013d 33fd 05bd
00000090: c1b1 98bd c1b1 bfbe d154 ca3c 4c64 1b3e
000000a0: bfe9 28be 5472 68be 1e1e b6be f99f 0000
000000b0: eafa c1bd 9032 36be 9747 1fbb 1ec6 0dbd
000000c0: d977 efbd 88d5 0000 b29f b03d 9f80 d3bc
000000d0: d050 b6bd c388 0080 2ea5 0000 aeae 0000
000000e0: 35b9 e13e 480e adbe 7597 0dbe c676 a9bd
000000f0: 30a0 0180 e583 e1bd da45 f5bd f3c4 423e
0.144972 -0.2458285 0.10927413 -0.12587559 0.20431541 -0.107684456 -0.17689224 9.4979e-41
-0.025144203 -0.06374079 -6.299e-41 0.19684608 3.4671e-41 -1.4463e-41 0.012199761 0.12725578
0.6336333 -0.10701079 -0.27845 1.09241e-40 0.07047991 -0.26738074 -0.067213744 0.27358347
-3.05791e-40 -4.9271e-41 1.65401e-40 6.4321e-41 0.11548763 -0.069249816 0.25115603 0.44241107
-0.15865897 -0.15549883 0.03167453 -0.032712173 -0.07455779 -0.37440303 0.024698647 0.15174979
-0.16495417 -0.22699863 -0.35569853 5.7387e-41 -0.09471686 -0.17792726 -0.0024304145 -0.034612767
-0.11692781 7.66e-41 0.086242095 -0.025818167 -0.089021325 -4.9061e-41 5.9255e-41 6.2663e-41
0.44086614 -0.33799958 -0.13827308 -0.08274607 -1.493e-40 -0.11011485 -0.11976214 0.19020443

cpu f8 [64]
00000000: 0000 0000 c10e 6a3f 0000 00c0 f33f 733f
00000010: 0000 00e0 0c76 703f 0000 0060 a388 753f
00000020: 0000 0080 4fe7 703f 0000 0020 2b68 703f
00000030: 0000 0060 3f7f 733f 0000 0040 39d7 713f
00000040: 0000 00c0 65b6 6c3f 0000 0000 6142 693f
00000050: 0000 0000 5cc7 6c3f 0000 0060 43fc 723f
00000060: 0000 0080 eed9 673f 0000 0020 014d 6b3f
00000070: 0000 0060 7139 793f 0000 0000 39ce 6e3f
00000080: 0000 00e0 e1f6 6d3f 0000 0060 d4b2 733f
00000090: 0000 0060 d431 703f 0000 0060 6117 753f
000000a0: 0000 0080 f6a4 733f 0000 0080 c636 663f
000000b0: 0000 0000 1c93 753f 0000 00e0 092c 6e3f
000000c0: 0000 0060 cc33 6f3f 0000 0060 81a6 6f3f
000000d0: 0000 00a0 1623 673f 0000 00c0 c5d0 683f
000000e0: 0000 00a0 3657 703f 0000 0020 78c4 723f
000000f0: 0000 0040 4f2f 6b3f 0000 00a0 0c58 723f
00000100: 0000 00c0 4c3f 723f 0000 0040 64e5 723f
00000110: 0000 00c0 4caf 6b3f 0000 0080 2046 733f
00000120: 0000 0000 2dda 683f 0000 00c0 61b0 713f
00000130: 0000 0080 0f16 653f 0000 00c0 1186 6b3f
00000140: 0000 0060 b31c 6c3f 0000 0020 a153 713f
00000150: 0000 00c0 49f3 703f 0000 0020 74b5 733f
00000160: 0000 0020 c7c7 773f 0000 0080 7226 663f
00000170: 0000 0040 174b 773f 0000 0020 4630 6a3f
00000180: 0000 00c0 af82 713f 0000 0040 5c0a 663f
00000190: 0000 00a0 553e 743f 0000 0000 336e 693f
000001a0: 0000 0080 fea2 6c3f 0000 0080 1d59 673f
000001b0: 0000 00e0 a486 713f 0000 0020 de7c 6a3f
000001c0: 0000 0020 79dd 6e3f 0000 0040 bb01 6d3f
000001d0: 0000 0060 1988 693f 0000 0000 82d3 6d3f
000001e0: 0000 00c0 ca35 693f 0000 0080 0e8e 6d3f
000001f0: 0000 0080 9d50 693f 0000 0060 b637 6c3f
0.0031808633357286453 0.004699661396443844 0.00401883153244853 0.005257261451333761 0.0041268449276685715 0.004005592782050371 0.004760024603456259 0.004355643875896931
0.003504942636936903 0.0030834097415208817 0.003513030707836151 0.004635108169168234 0.0029115350916981697 0.0033326169941574335 0.006158297415822744 0.00376044400036335
0.0036577617283910513 0.004809217061847448 0.003953771200031042 0.0051492503844201565 0.004795992746949196 0.002711665816605091 0.005267247557640076 0.003683108603581786
0.0038088790606707335 0.0038635756354779005 0.0028243486303836107 0.0030292379669845104 0.003989423159509897 0.004581898916512728 0.0033184573985636234 0.004478501621633768
0.004454898647964001 0.004613296128809452 0.0033794878982007504 0.0047055501490831375 0.0030337218195199966 0.004318601451814175 0.002573995850980282 0.0033598276786506176
0.003431654302403331 0.004230145830661058 0.00413826759904623 0.00481171952560544 0.005805757362395525 0.0027038799598813057 0.005686846561729908 0.00319684692658484
0.004275023005902767 0.002690487075597048 0.004942259285598993 0.0031043048948049545 0.0034956904128193855 0.0028501106426119804 0.004278797190636396 0.0032333696726709604
0.0037677159998565912 0.0035408646799623966 0.0031166549306362867 0.0036408938467502594 0.003077407833188772 0.0036077769473195076 0.003090198151767254 0.003444534493610263

fire3.conv3.bias f4 [64]
00000000: a9ed 0a3e 5d9d 19be 2f1c 6b3d 84ce 56bd
00000010: f476 5abd 87b5 0ebd d758 bbbd bbcb f7bc
00000020: afac a63c 5936 3fbe 759d 453d fdd5 1d3e
00000030: 31fa efbb 73c3 74bd e2e9 793d 3631 5bbd
00000040: a9c3 86bc dfb0 c0bd f7c5 a2bd 9564 16be
00000050: a11d 4cbd 1862 1bbb 8f48 acbb fb56 293c
00000060: a9c3 b6bd bc48 b43d 126a 6b3d 095b 8f3d
00000070: 41fd 81bd 4ddd 9cbe fd40 e0bd 59aa 70be
00000080: 39b8 353e aec0 ed3d 6e5c 94be 69cd 33bd
00000090: db08 c53b eea7 da3d 252a d3bd 7d88 e33c
000000a0: a4fd 0d3d 8a9d 70bd 0c47 693e ec54 093d
000000b0: bfcb 89be 5d04 2cbe 5ae8 c03d 8490 e23c
000000c0: 9b12 ccbb eabf e23d 7903 9c3d 5e15 403d
000000d0: 44d4 833d 74da 30bd de32 dc37 4c26 9b3d
000000e0: 6b13 953d 0853 9e3b 1026 a2bd 42aa 563d
000000f0: fbe3 19be 0bcd cabe 8808 93bd e556 34be
0.13567223 -0.15001436 0.057399925 -0.052443042 -0.0533361 -0.034841087 -0.09147804 -0.030248513
0.020346014 -0.18673076 0.048245866 0.15413661 -0.0073235263 -0.059756707 0.061014064 -0.053513728
-0.01645072 -0.094087355 -0.07947915 -0.14686806 -0.049832944 -0.0023709591 -0.005257673 0.010335679
-0.08924038 0.088029355 0.057474203 0.069997855 -0.063471325 -0.3063759 -0.109498955 -0.23502482
0.17746057 0.11609016 -0.28976768 -0.043897066 0.0060130185 0.10676561 -0.10310773 0.027775044
0.03466572 -0.05874399 0.22781008 0.033528253 -0.26913258 -0.1679854 0.094193175 0.027656801
-0.006227804 0.11071761 0.0761785 0.046895377 0.06436971 -0.043177083 2.624973e-05 0.07575664
0.07279094 0.0048316754 -0.07917416 0.052408464 -0.15028374 -0.3960956 -0.071793616 -0.17611273

cpu f8 [32]
00000000: 0000 0060 889c 773f 0000 0080 d559 6b3f
00000010: 0000 00c0 c450 723f 0000 0040 2fb0 753f
00000020: 0000 0080 a43e 783f 0000 0000 1c1a 703f
00000030: 0000 0000 1aa0 723f 0000 00a0 798d 723f
00000040: 0000 00c0 11c8 743f 0000 0040 606f 7a3f
00000050: 0000 0040 6df2 7d3f 0000 00e0 6fbe 753f
00000060: 0000 00a0 371e 773f 0000 0020 d797 753f
00000070: 0000 00e0 eb5d 753f 0000 0080 5ff6 6e3f
00000080: 0000 00c0 19da 6c3f 0000 00e0 5790 713f
00000090: 0000 0080 8688 693f 0000 00a0 96e7 703f
000000a0: 0000 0020 af1b 743f 0000 0000 5f62 713f
000000b0: 0000 0020 32aa 713f 0000 00c0 fd0c 7d3f
000000c0: 0000 0000 8685 763f 0000 0060 5f22 703f
000000d0: 0000 0080 2841 723f 0000 0040 f80a 6e3f
000000e0: 0000 0060 9f05 6e3f 0000 00e0 c986 773f
000000f0: 0000 0080 2152 733f 0000 0040 5c46 793f
0.005764515604823828 0.003338734619319439 0.004471558146178722 0.005294975824654102 0.0059191156178712845 0.003931149840354919 0.00454721599817276 0.004529452417045832
0.005073613487184048 0.006453872658312321 0.0073112742975354195 0.005308568011969328 0.0056440518237650394 0.0052717593498528 0.005216523539274931 0.0037795891985297203
0.003521967213600874 0.004288047086447477 0.0031168581917881966 0.00412710988894105 0.004909214098006487 0.004244204610586166 0.004312701988965273 0.00709246750921011
0.005498431622982025 0.003939030226320028 0.004456670954823494 0.003667340148240328 0.0036647904198616743 0.0057437787763774395 0.004716997966170311 0.006170616485178471

fire4.conv1.bias f4 [32]
00000000: 7dc7 c4bd a6e0 3f3e 53ff 4d3e ea8d 813d
00000010: 6e08 7a3e 3ba3 33bc 73c1 46bf d735 a1bd
00000020: e95b f7bd 3c52 a93e 044d 643c c622 77be
00000030: b64f 7a3e 580d f23e d91e fd3b a145 9b3e
00000040: 05e5 303e ba09 a63c 4c42 b03e b38e 963e
00000050: ef6b 2ebd 4b7b bf3b 0dde 23bb 1d04 65bd
00000060: 9f97 333c 1749 853d 9a2b db3d 03e0 8a3d
00000070: d11e 093c 479d 57bd 8206 243e 465a 3e3d
-0.09608362 0.1873804 0.2011693 0.06325896 0.24417278 -0.01096421 -0.7763893 -0.07871597
-0.12078077 0.33070552 0.013934378 -0.24134359 0.2444447 0.47275805 0.0077246246 0.3032656
0.17274864 0.02026831 0.3442558 0.29405746 -0.042583402 0.005843555 -0.0025004179 -0.055912126
0.010961442 0.065080814 0.10701676 0.06781008 0.008369164 -0.052640226 0.16018108 0.04647281

cpu f8 [128]
00000000: 0000 0000 0000 803e 0000 0000 0000 803e
00000010: 0000 0060 05aa 5b3f 0000 0000 0000 803e
00000020: 0000 0000 0000 803e 0000 0060 7a2e 723f
00000030: 0000 0000 0000 803e 0000 0000 0000 803e
00000040: 0000 00c0 f7cc 6b3f 0000 0040 73a3 673f
00000050: 0000 0000 0000 803e 0000 00e0 4252 2f3f
00000060: 0000 0000 0000 803e 0000 0000 0000 803e
00000070: 0000 0060 6f5d 523f 0000 0000 0000 803e
00000080: 0000 0060 6f05 6b3f 0000 0000 0000 803e
00000090: 0000 0000 0000 803e 0000 0000 0000 803e
000000a0: 0000 00a0 f460 633f 0000 0040 760b 6a3f
000000b0: 0000 0040 9db1 733f 0000 0080 c1ea 5d3f
000000c0: 0000 0000 0000 803e 0000 00c0 9bfd 743f
000000d0: 0000 0020 3772 6c3f 0000 00e0 8219 753f
000000e0: 0000 0040 7dbb 603f 0000 0000 0000 803e
000000f0: 0000 0020 55a9 623f 0000 0000 0000 803e
00000100: 0000 00c0 2530 6f3f 0000 0040 887d 443f
00000110: 0000 0020 4b65 593f 0000 00e0 10a8 653f
00000120: 0000 0080 cf7c 663f 0000 0000 0000 803e
00000130: 0000 0040 6f91 6b3f 0000 0000 0000 803e
00000140: 0000 0080 ae38 4d3f 0000 00c0 68ef 6e3f
00000150: 0000 00c0 eb1f 6b3f 0000 0000 0000 803e
00000160: 0000 0000 0000 803e 0000 0000 0000 803e
00000170: 0000 0000 0000 803e 0000 0000 1ccc 613f
00000180: 0000 0000 0000 803e 0000 0080 c481 653f
00000190: 0000 0020 7214 623f 0000 0000 0000 803e
000001a0: 0000 0000 0000 803e 0000 0000 0000 803e
000001b0: 0000 0000 0000 803e 0000 0000 0000 803e
000001c0: 0000 0000 7628 773f 0000 0000 0000 803e
000001d0: 0000 0000 14e0 713f 0000 0000 0000 803e
000001e0: 0000 0080 1a2d 6e3f 0000 0000 0000 803e
000001f0: 0000 0000 0000 803e 0000 0000 0000 803e
00000200: 0000 00c0 faf3 643f 0000 00a0 c003 603f
00000210: 0000 0020 a57f 603f 0000 0000 0000 803e
00000220: 0000 0000 0000 803e 0000 00c0 2a0c 513f
00000230: 0000 00c0 e669 a33e 0000 0080 3358 673f
00000240: 0000 0000 0000 803e 0000 0080 63f1 5d3f
00000250: 0000 0000 0000 803e 0000 0000 0000 803e
00000260: 0000 0020 d000 553f 0000 0000 0000 803e
00000270: 0000 0000 002a 693f 0000 00a0 7106 583f
00000280: 0000 00e0 2bb3 773f 0000 00e0 6db1 6a3f
00000290: 0000 0000 0000 803e 0000 0000 0000 803e
000002a0: 0000 00a0 9008 623f 0000 00e0 86f1 733f
000002b0: 0000 0040 80b1 243f 0000 00c0 5f98 633f
000002c0: 0000 0000 0000 803e 0000 00c0 fe82 423f
000002d0: 0000 0000 0000 803e 0000 0000 0000 803e
000002e0: 0000 0000 0000 803e 0000 00e0 bc43 763f
000002f0: 0000 0060 e025 6b3f 0000 0000 0000 803e
00000300: 0000 0020 451c 723f 0000 00e0 4e8d 623f
00000310: 0000 0080 1618 673f 0000 0000 0000 803e
00000320: 0000 0020 8658 203f 0000 0000 0000 803e
00000330: 0000 0000 0000 803e 0000 0040 57bc 663f
00000340: 0000 0020 8c59 743f 0000 0020 7f33 683f
00000350: 0000 0080 7fa5 673f 0000 0000 0000 803e
00000360: 0000 0040 a3cb 5e3f 0000 0020 6d0a 693f
00000370: 0000 0000 0159 703f 0000 0000 0000 803e
00000380: 0000 0000 0000 803e 0000 00c0 c93b 693f
00000390: 0000 00a0 f168 683f 0000 0000 0000 803e
000003a0: 0000 0080 2fc0 623f 0000 00e0 ba62 523f
000003b0: 0000 00e0 c1b4 173f 0000 0000 0000 803e
000003c0: 0000 0000 0000 803e 0000 0000 0000 803e
000003d0: 0000 0000 0000 803e 0000 0000 0000 803e
000003e0: 0000 0000 0000 803e 0000 0000 0000 803e
000003f0: 0000 00a0 f1ad 3f3f 0000 0020 2402 6a3f
1.1920928955078125e-07 1.1920928955078125e-07 0.0016884853830561042 1.1920928955078125e-07 1.1920928955078125e-07 0.004438856150954962 1.1920928955078125e-07 1.1920928955078125e-07
0.0033936346881091595 0.0028855563141405582 1.1920928955078125e-07 0.0002389628061791882 1.1920928955078125e-07 1.1920928955078125e-07 0.0011209094664081931 1.1920928955078125e-07
0.0032984900753945112 1.1920928955078125e-07 1.1920928955078125e-07 1.1920928955078125e-07 0.0023655679542571306 0.003179293591529131 0.004808058030903339 0.0018259896896779537
1.1920928955078125e-07 0.005124672316014767 0.0034724308643490076 0.0051512825302779675 0.0020425268448889256 1.1920928955078125e-07 0.0022780096624046564 1.1920928955078125e-07
0.0038071381859481335 0.0006253161700442433 0.0015500291483476758 0.0026436166372150183 0.002745061181485653 1.1920928955078125e-07 0.003365247044712305 1.1920928955078125e-07
0.000891766743734479 0.003776268567889929 0.003311119507998228 1.1920928955078125e-07 1.1920928955078125e-07 1.1920928955078125e-07 1.1920928955078125e-07 0.002172522246837616
1.1920928955078125e-07 0.002625354565680027 0.0022070149425417185 1.1920928955078125e-07 1.1920928955078125e-07 1.1920928955078125e-07 1.1920928955078125e-07 1.1920928955078125e-07
0.0056538209319114685 1.1920928955078125e-07 0.004364088177680969 1.1920928955078125e-07 0.0036836164072155952 1.1920928955078125e-07 1.1920928955078125e-07 1.1920928955078125e-07
0.002557744737714529 0.00195491430349648 0.0020139908883720636 1.1920928955078125e-07 1.1920928955078125e-07 0.0010404984932392836 5.785726671092561e-07 0.0028496747836470604
1.1920928955078125e-07 0.0018275710754096508 1.1920928955078125e-07 1.1920928955078125e-07 0.0012819321127608418 1.1920928955078125e-07 0.0030717849731445312 0.00146638008300215
0.005786105524748564 0.003258432960137725 1.1920928955078125e-07 1.1920928955078125e-07 0.0022013497073203325 0.004869009833782911 0.00015787783195264637 0.002391993533819914
1.1920928955078125e-07 0.0005649322411045432 1.1920928955078125e-07 1.1920928955078125e-07 1.1920928955078125e-07 0.005435693543404341 0.0033139593433588743 1.1920928955078125e-07
0.004421491641551256 0.002264646580442786 0.0028191031888127327 1.1920928955078125e-07 0.00012470853107515723 1.1920928955078125e-07 1.1920928955078125e-07 0.002775354776531458
0.004968211520463228 0.0029542429838329554 0.0028865328058600426 1.1920928955078125e-07 0.0018796056974679232 0.003056729445233941 0.003991130739450455 1.1920928955078125e-07
1.1920928955078125e-07 0.0030802669934928417 0.002979728626087308 1.1920928955078125e-07 0.0022889068350195885 0.0011221718741580844 9.043153113452718e-05 1.1920928955078125e-07
1.1920928955078125e-07 1.1920928955078125e-07 1.1920928955078125e-07 1.1920928955078125e-07 1.1920928955078125e-07 1.1920928955078125e-07 0.00048339032218791544 0.0031748490873724222

fire4.conv2.bias f4 [128]
00000000: 0c8c 0080 d188 0080 5a44 efbd 6b0c 0600
00000010: 5398 0000 2b1e 13bf 51a1 0080 9489 0000
00000020: bb6b f13c 0124 903e fdd4 0100 3660 08bc
00000030: 7a9d 0080 9a90 0080 0e89 e9bd f589 0080
00000040: 8eee aa3e 2ceb 0100 be92 0080 ef8e 0000
00000050: 55b6 8abe d819 06be a935 0b3d 2e29 8cbe
00000060: 0689 0080 b674 88be bfa0 57be 4576 8abe
00000070: d8ed 60be 588d 0080 5300 383f 8e1b 0680
00000080: 8796 78bd 091c a4bd 6c2b ce3e 8e26 59be
00000090: 48bb 143f 2f89 0000 d698 eebe 839a 0000
000000a0: 94b8 d2bd 38c0 793e f428 64be af89 0080
000000b0: 3006 0100 7a94 0080 54a5 0000 fd5c 57be
000000c0: 3ea9 0400 dcb7 88be 52ed 403e a007 0080
000000d0: 3499 0080 5989 0080 f488 0080 7390 0080
000000e0: 04e7 e93d f593 0080 10b3 3c3d 238a 0080
000000f0: ea23 99be 1189 0000 be1f 0080 eb88 0080
00000100: 51da 6bbe fc7d 1bbe fa74 c13e c18a 0000
00000110: d913 0e91 e928 90bd c300 04ae 1bb2 87be
00000120: 95db 0180 d8fc b8bd 608c 0000 518a 0000
00000130: 6b8c 08be cff3 0100 c867 47bd 8957 f03e
00000140: 4113 a6bd 272c 86be 098a 0000 548b 0000
00000150: 10aa b3be 0299 033e f4e5 03bc 3ae7 f63d
00000160: bfdd 0100 cf5b 8cbd 7e89 0080 a389 0080
00000170: 138a 0000 3495 02be 643d 40be da9b 0000
00000180: 2266 a5be 0548 84bd b835 b93e 68c8 0080
00000190: 0c9c 1dbc 5d5d 0400 a089 0080 4196 9abe
000001a0: 2e99 983e 6ab9 9a3d b914 38bc 248c 0080
000001b0: f3c9 87be 491e cbbe cda6 8fbd 0712 0600
000001c0: ce90 0080 1b37 023f c7f5 83be f907 0100
000001d0: f1fa c53c 0ee3 16be 7543 57bc a486 0080
000001e0: 0792 0000 f389 0080 7c91 629a d088 0080
000001f0: 2595 0000 1bf8 0180 7126 eebc d186 cdbd
-5.024e-41 -4.908e-41 -0.11682959 5.55468e-40 5.4644e-41 -0.5746791 -5.787e-41 4.9354e-41
0.029470315 0.2815247 1.68241e-40 -0.00832372 -5.6492e-41 -5.1873e-41 -0.11403094 -4.949e-41
0.33385128 1.76199e-40 -5.2641e-41 5.1275e-41 -0.27092233 -0.13095796 0.03398672 -0.27375168
-4.9155e-41 -0.26651543 -0.21057414 -0.27043357 -0.2196573 -5.0705e-41 0.71875495 -5.60898e-40
-0.06069043 -0.0801316 0.40267503 -0.21206114 0.5809827 4.9212e-41 -0.4660098 5.5428e-41
-0.10289112 0.24389732 -0.22281247 -4.9392e-41 9.4055e-41 -5.3263e-41 5.9309e-41 -0.21031566
4.28055e-40 -0.26702774 0.1884053 -2.735e-42 -5.4959e-41 -4.9271e-41 -4.913e-41 -5.1819e-41
0.11421016 -5.3077e-41 0.046069205 -4.9554e-41 -0.29910213 4.917e-41 -1.1387e-41 -4.9117e-41
-0.230325 -0.15184778 0.3778456 4.9776e-41 -1.1207941e-28 -0.07039053 -3.0014e-11 -0.2650307
-1.70607e-40 -0.09032601 5.0357e-41 4.9619e-41 -0.13334815 1.79298e-40 -0.048682958 0.46941784
-0.08109141 -0.2620556 4.9518e-41 4.9982e-41 -0.35090685 0.12851337 -0.008050431 0.12055822
1.71383e-40 -0.068534486 -4.9323e-41 -4.9375e-41 4.9532e-41 -0.12752229 -0.18773419 5.5909e-41
-0.32304484 -0.06459049 0.36173797 -7.1892e-41 -0.009619724 4.00834e-40 -4.937e-41 -0.3019276
0.29804367 0.07554896 -0.011235409 -5.0273e-41 -0.26521263 -0.39671543 -0.070142366 5.5748e-40
-5.1946e-41 0.50865334 -0.2577345 9.4696e-41 0.02416751 -0.14735052 -0.013138642 -4.83e-41
5.2385e-41 -4.9487e-41 -4.6853226e-23 -4.9079e-41 5.3503e-41 -1.80839e-40 -0.029071065 -0.1003548

cpu f8 [128]
00000000: 0000 00e0 907d 693f 0000 00c0 7b44 693f
00000010: 0000 00c0 c0b0 683f 0000 00e0 6bf4 6c3f
00000020: 0000 0080 8ec9 713f 0000 00a0 1703 6b3f
00000030: 0000 00a0 6687 6e3f 0000 0060 5a58 6c3f
00000040: 0000 00a0 4bb1 6b3f 0000 0080 5264 683f
00000050: 0000 0000 6f82 723f 0000 00e0 abbc 6a3f
00000060: 0000 0040 2c78 6e3f 0000 0060 9096 6e3f
00000070: 0000 0080 b96f 663f 0000 0000 1798 653f
00000080: 0000 0060 6eb3 6a3f 0000 0080 6ee0 673f
00000090: 0000 0020 a8b5 663f 0000 0080 80b1 653f
000000a0: 0000 00e0 4e89 703f 0000 00a0 2086 6c3f
000000b0: 0000 0040 5c26 6c3f 0000 00e0 d955 6e3f
000000c0: 0000 0060 eb55 6f3f 0000 00e0 8187 6e3f
000000d0: 0000 0060 5327 6d3f 0000 00c0 5d54 6b3f
000000e0: 0000 0020 e9b4 723f 0000 0040 a0c8 623f
000000f0: 0000 00a0 eb45 723f 0000 0040 4228 6a3f
00000100: 0000 0020 e2b4 6c3f 0000 0040 be72 673f
00000110: 0000 0040 4c83 683f 0000 00a0 c2e5 703f
00000120: 0000 0020 ad7a 693f 0000 0020 6bda 693f
00000130: 0000 00c0 d6f1 663f 0000 00a0 91a9 6d3f
00000140: 0000 0040 c7f6 6b3f 0000 00c0 9f0b 713f
00000150: 0000 0000 18da 663f 0000 0020 b5f9 693f
00000160: 0000 00a0 f045 703f 0000 0020 8952 6b3f
00000170: 0000 00c0 887d 6b3f 0000 0020 ab04 673f
00000180: 0000 0020 d947 6a3f 0000 0040 3fc6 663f
00000190: 0000 0020 5eac 683f 0000 00a0 c885 6b3f
000001a0: 0000 0080 7960 6a3f 0000 0040 ba65 6c3f
000001b0: 0000 00a0 f52f 6d3f 0000 0060 ea50 713f
000001c0: 0000 00a0 54a1 673f 0000 0080 10ad 643f
000001d0: 0000 00c0 2df9 673f 0000 0060 12c2 663f
000001e0: 0000 0020 ba73 6c3f 0000 0060 d1aa 643f
000001f0: 0000 0020 d83f 693f 0000 0040 e1b7 693f
00000200: 0000 00a0 92a8 683f 0000 00a0 33c5 653f
00000210: 0000 00c0 e822 683f 0000 00c0 ba03 713f
00000220: 0000 00e0 edfb 683f 0000 0020 e87d 6e3f
00000230: 0000 0040 9d48 743f 0000 00c0 b3fc 733f
00000240: 0000 0000 3684 6b3f 0000 0060 5e4f 663f
00000250: 0000 0060 a955 6c3f 0000 00e0 bd59 6b3f
00000260: 0000 0080 80bd 683f 0000 0060 94d0 703f
00000270: 0000 0040 dd93 693f 0000 0060 046f 693f
00000280: 0000 0080 b93d 6b3f 0000 00c0 889a 653f
00000290: 0000 00c0 b7ad 6a3f 0000 00c0 5871 673f
000002a0: 0000 0080 f412 673f 0000 0000 1818 6a3f
000002b0: 0000 0060 fbc7 683f 0000 00c0 baf1 6b3f
000002c0: 0000 0000 c4f9 6e3f 0000 0020 bea4 703f
000002d0: 0000 0060 e660 703f 0000 00c0 9a84 6d3f
000002e0: 0000 00e0 df86 693f 0000 00c0 4dc5 683f
000002f0: 0000 0000 de6f 6b3f 0000 0000 67a0 6d3f
00000300: 0000 0040 7f4e 683f 0000 00a0 c991 6a3f
00000310: 0000 0080 c89f 683f 0000 00e0 06f3 6c3f
00000320: 0000 0060 3286 643f 0000 00a0 818e 683f
00000330: 0000 0040 0656 693f 0000 00a0 e324 643f
00000340: 0000 00a0 acd7 6b3f 0000 0000 0000 803e
00000350: 0000 0000 c339 6d3f 0000 0060 2ec4 6e3f
00000360: 0000 0020 7141 713f 0000 00c0 5229 693f
00000370: 0000 0060 a3a9 6c3f 0000 0000 ea94 683f
00000380: 0000 00c0 c997 6e3f 0000 00a0 5c5e 673f
00000390: 0000 00c0 92cf 713f 0000 0040 cb1c 6d3f
000003a0: 0000 0020 0a1a 6c3f 0000 0040 fb91 673f
000003b0: 0000 0060 05e7 613f 0000 00c0 4fc3 6a3f
000003c0: 0000 0000 5ff8 673f 0000 0080 c219 6a3f
000003d0: 0000 0020 1ec5 663f 0000 0000 0aa4 663f
000003e0: 0000 00c0 ce24 713f 0000 0060 d2f6 693f
000003f0: 0000 0040 69f4 713f 0000 0000 5ea6 663f
0.0031116323079913855 0.00308441324159503 0.0030139698646962643 0.003534517949447036 0.004342610016465187 0.00329737295396626 0.0037266735453158617 0.0034600987564772367
0.0033804394770413637 0.002977524884045124 0.004518922418355942 0.0032637936528772116 0.0037194122560322285 0.003733903868123889 0.0027388213202357292 0.0026359986513853073
0.0032593875657767057 0.00291463453322649 0.00277216755785048 0.0026481160894036293 0.004037197213619947 0.0034819256979972124 0.0034362603910267353 0.0037030463572591543
0.003825149266049266 0.0037267243023961782 0.003558791009709239 0.003336127381771803 0.004567061085253954 0.0022929315455257893 0.004461212549358606 0.0031930250115692616
0.0035042206291109324 0.0028623309917747974 0.0029922951944172382 0.004125366453081369 0.003110254416242242 0.0031559078488498926 0.0028008646331727505 0.003620895789936185
0.003413571510463953 0.004161476157605648 0.002789542078971863 0.0031708276364952326 0.003972949925810099 0.0033352544996887445 0.003355757798999548 0.0028098432812839746
0.0032080879900604486 0.0027800784446299076 0.003011878812685609 0.00335969147272408 0.0032198308035731316 0.00346647622063756 0.0035629079211503267 0.004227557685226202
0.002884545596316457 0.002523929812014103 0.0029264348559081554 0.0027780875097960234 0.00347315170802176 0.0025228585582226515 0.0030822011176496744 0.003139438573271036
0.003010069252923131 0.0026575096417218447 0.0029463334940373898 0.0041539473459124565 0.0030498167034238577 0.003722146386280656 0.004952062852680683 0.0048796674236655235
0.003358941525220871 0.0027233927976340055 0.0034588153939694166 0.0033386906143277884 0.003020049072802067 0.004105166997760534 0.0031222649849951267 0.0031046948861330748
0.003325331024825573 0.0026371642015874386 0.003256663214415312 0.0028616650961339474 0.0028166556730866432 0.0031853169202804565 0.00302504631690681 0.003411164041608572
0.0037812069058418274 0.00406336085870862 0.003998660948127508 0.003603269811719656 0.003116070991382003 0.0030237692408263683 0.003349240869283676 0.003616524860262871
0.0029671178199350834 0.003243345068767667 0.0030058780685067177 0.0035338529851287603 0.0025053962599486113 0.002997639821842313 0.0030927774496376514 0.002458996372297406
0.003398739965632558 1.1920928955078125e-07 0.003567581996321678 0.003755655838176608 0.00421280087903142 0.003071462269872427 0.0034988585393875837 0.0030006952583789825
0.0037344875745475292 0.0028526124078780413 0.004348347894847393 0.0035537690855562687 0.003430385375395417 0.0028772265650331974 0.002185354707762599 0.0032669599168002605
0.002926049754023552 0.0031861113384366035 0.002779539907351136 0.002763766795396805 0.004185493104159832 0.003169451607391238 0.004383479245007038 0.0027648769319057465

fire4.conv3.bias f4 [128]
00000000: dbdd 9b3e a3f1 923d 6c21 24bc d99f 833e
00000010: 677a 573d 2ea3 793d 5129 7a3d e794 4e3e
00000020: 5874 ea3d 2667 41bd f902 96bd b4f5 f4bd
00000030: 66ca 67be 21a4 e13d 4a0d 3d3c 7488 81bd
00000040: b084 81be 9e56 e33c 95f8 553d ec33 0bbe
00000050: 2ea5 6abe 254c 4cbd 9719 b53c dc6e 1fbe
00000060: cd01 70bd c207 19be 8c89 0bbe ea30 51be
00000070: 1b59 11be 010d 44be 9f07 b23d 8167 72bc
00000080: 7c94 ff3b 0962 2cbe a8a2 54bd bd0c 853d
00000090: a559 4ebe eadb fdbc 0f2f 9fbd 6112 36bd
000000a0: fdd2 3abe 34cb f0bc ab7b 79be 4420 923e
000000b0: d869 e4bd e0aa 713e e5b9 203e edba 2ebd
000000c0: 1b03 c0bc 553b bb3b 6723 6d3d 2266 bd3d
000000d0: f57a 373e 655a ebbd 360a 3fbe 92cc 9cbe
000000e0: f752 abbb 7c52 e2bd 5d00 1fbe e2ce a0bd
000000f0: fdec 01be d884 56be d60c 3d3e cecb b0bd
00000100: 4249 99bc c258 fbbd f7ee 54be 3a64 e8bd
00000110: 4053 20be 8916 23be 71d2 61be 43a7 adbe
00000120: 8933 b33e c904 46bd 824a 08be 9e79 eebd
00000130: 837b 303d 6ee7 8bbe 6d1e aebe c181 45bd
00000140: f1b5 96bc ef1b 22bd 158a 013c e112 ce3d
00000150: 4955 0cbe 2b09 173d 3963 b93d b4dc be3e
00000160: 7468 d0bc 2f9b e1bd 934e 263e c61e f2bd
00000170: 09b9 56be 11d0 a5be 3473 87be 6734 2fbe
00000180: 471d d0bc 20b5 64bd 2494 76be b202 3fbe
00000190: 921f 8f3d d369 73bd 10b2 2abd f85f a4bd
000001a0: 605d 2cbe ef88 0080 c03d 63be fc98 a7bc
000001b0: 1369 353e 40d9 943d d2e3 46be 9cad 72be
000001c0: f861 abbe 0959 74be f1d2 8ebe 15df 40be
000001d0: 223c 03be 3be3 22be 1e8c f43c 9aee e8bd
000001e0: 4926 ccbc 8e75 a5be b529 6bbe acf7 933d
000001f0: fdfc 01be 0ce6 f9bd a5a7 82be 4eb4 77bd
0.304427 0.07174995 -0.010017734 0.25707892 0.052606966 0.060946636 0.06107456 0.20173989
0.11447972 -0.04721751 -0.07324786 -0.11960927 -0.22635803 0.11017633 0.011538813 -0.063248545
-0.25296545 0.027751263 0.05223902 -0.13594025 -0.22914574 -0.049877305 0.022106929 -0.15569633
-0.058595467 -0.14944366 -0.13626689 -0.20428815 -0.14194147 -0.19145586 0.0869286 -0.014795185
0.007799683 -0.16834272 -0.051912934 0.0649657 -0.20151384 -0.030988652 -0.077726476 -0.04445112
-0.18244548 -0.02939377 -0.24363582 0.28540242 -0.111530006 0.2360034 0.15695913 -0.042658735
-0.02343898 0.00571386 0.05789509 0.09247996 0.17917998 -0.11491851 -0.18656239 -0.30624825
-0.005228396 -0.11050889 -0.15527482 -0.0785196 -0.1268806 -0.20949113 0.18461928 -0.08632623
-0.01871169 -0.122727886 -0.20794283 -0.11347242 -0.15656757 -0.15926565 -0.22052933 -0.33916673
0.35000256 -0.048344407 -0.13309672 -0.116442904 0.04308654 -0.27325004 -0.34007588 -0.048219446
-0.018397303 -0.03957742 0.0079064565 0.100621946 -0.13704409 0.036873978 0.09052128 0.37277758
-0.025440432 -0.11015927 0.16240911 -0.11822276 -0.20969023 -0.32385305 -0.2645508 -0.17109834
-0.025404586 -0.055836797 -0.24079949 -0.18653372 0.069884434 -0.059427094 -0.04167372 -0.08026117
-0.16832495 -4.9123e-41 -0.22191525 -0.02045869 0.17715864 0.07268 -0.19422844 -0.23699039
-0.33473182 -0.23862089 -0.2789531 -0.18835099 -0.12815908 -0.15906994 0.02985197 -0.11373635
-0.0249206 -0.3231625 -0.22965129 0.07224974 -0.12694164 -0.12202081 -0.25518528 -0.060474686

cpu f8 [32]
00000000: 0000 0000 0000 803e 0000 0080 3ed0 733f
00000010: 0000 0000 0000 803e 0000 0000 93fb 733f
00000020: 0000 0060 beb3 733f 0000 0000 0000 803e
00000030: 0000 00a0 090d 6d3f 0000 0000 0000 803e
00000040: 0000 0000 0000 803e 0000 0040 7b82 6f3f
00000050: 0000 0000 0000 803e 0000 00e0 7b37 713f
00000060: 0000 0080 b30c 763f 0000 0020 0dd1 723f
00000070: 0000 0000 0000 803e 0000 0000 0000 803e
00000080: 0000 0000 0000 803e 0000 0000 0000 803e
00000090: 0000 00a0 9863 713f 0000 0000 0000 803e
000000a0: 0000 0000 d24d 783f 0000 0000 0000 803e
000000b0: 0000 0000 5f8e 6c3f 0000 00c0 be7e 713f
000000c0: 0000 0000 0000 803e 0000 0000 0000 803e
000000d0: 0000 0040 d153 763f 0000 0000 0000 803e
000000e0: 0000 0000 0000 803e 0000 0080 b975 7a3f
000000f0: 0000 0000 0000 803e 0000 00c0 008c 743f
1.1920928955078125e-07 0.004837268963456154 1.1920928955078125e-07 0.004878591746091843 0.0048100887797772884 1.1920928955078125e-07 0.003546255873516202 1.1920928955078125e-07
1.1920928955078125e-07 0.003846398089081049 1.1920928955078125e-07 0.004203304182738066 0.005383206531405449 0.0045938980765640736 1.1920928955078125e-07 1.1920928955078125e-07
1.1920928955078125e-07 1.1920928955078125e-07 0.0042453729547560215 1.1920928955078125e-07 0.005933590233325958 1.1920928955078125e-07 0.0034858565777540207 0.004271264187991619
1.1920928955078125e-07 1.1920928955078125e-07 0.005451028235256672 1.1920928955078125e-07 1.1920928955078125e-07 0.006459927186369896 1.1920928955078125e-07 0.005016329698264599

fire5.conv1.bias f4 [32]
00000000: 2392 0080 57dc 2b3f 818b 0080 c7e7 2fbd
00000010: 41a7 b73e dc50 0380 5e3e 3d3d 188a 0080
00000020: 24a8 0000 d4b9 643f 928a 0080 6f0f 69be
00000030: 3a10 1e3e 7d97 4d3d f988 0080 6c0a 0000
00000040: 8b3b 0080 c120 0080 fd96 8e3c ceb3 0200
00000050: cc62 c3be 79a4 0000 44c0 383e 9cca cf3e
00000060: bf6f 0400 dd25 0380 e0dc b7be 956b 0080
00000070: d988 0000 4f09 913c f8ae 0000 5552 4f3e
-5.2424e-41 0.67133087 -5.0045e-41 -0.04294565 0.35869792 -3.04513e-40 0.046202056 -4.9539e-41
6.0317e-41 0.8934605 -4.971e-41 -0.22759794 0.15435877 0.0501933 -4.9137e-41 3.739e-42
-2.136e-41 -1.175e-41 0.017405981 2.48173e-40 -0.38161314 5.9002e-41 0.18042094 0.40584266
4.07429e-40 -2.89089e-40 -0.35910702 -3.8593e-41 4.9092e-41 0.017704634 6.2767e-41 0.20246251
